name: "Multi-Column GoogLeNet for Photographic Defect Detection (Holistic Inputs)"

#----------------------testing set, no gt-----------------------
#----------------------testing set, no gt-----------------------
#----------------------testing set, no gt-----------------------
#----------------------testing set, no gt-----------------------
#----------------------testing set, no gt-----------------------
layer {
  name: "data"
  type: "Input"
  top: "data"
  input_param {
    shape: {
      dim: 1
      dim: 3
      dim: 224
      dim: 224
    }
  }
}

#----------------------trunk layers, unchanged-----------------------
#----------------------trunk layers, unchanged-----------------------
#----------------------trunk layers, unchanged-----------------------
#----------------------trunk layers, unchanged-----------------------
#----------------------trunk layers, unchanged-----------------------
layer {
  bottom: "data"
  top: "conv1/7x7_s2"
  name: "conv1/7x7_s2"
  type: "Convolution"
  param {
    lr_mult: 1
    decay_mult: 1
  }
  convolution_param {
    num_output: 64
    pad: 3
    kernel_size: 7
    stride: 2
    weight_filler {
      type: "xavier"
    }
    bias_term: false
  }
}
layer {
  bottom: "conv1/7x7_s2"
  name: "conv1/7x7_s2/bn"
  top: "conv1/7x7_s2/bn"
  type: "BatchNorm"
  param {
    lr_mult: 1
    decay_mult: 1
  }
  param {
    lr_mult: 1
    decay_mult: 1
  }
  param {
    lr_mult: 1
    decay_mult: 1
  }
}
layer {
  bottom: "conv1/7x7_s2/bn"
  top: "conv1/7x7_s2/bn/sc"
  name: "conv1/7x7_s2/bn/sc"
  type: "Scale"
  param {
    lr_mult: 1
    decay_mult: 1
  }
  param {
    lr_mult: 1
    decay_mult: 1
  }
  scale_param {
    bias_term: true
  }
}
layer {
  bottom: "conv1/7x7_s2/bn/sc"
  top: "conv1/7x7_s2/bn/sc"
  name: "conv1/7x7_s2/bn/sc/relu"
  type: "ReLU"
}
layer {
  bottom: "conv1/7x7_s2/bn/sc"
  top: "pool1/3x3_s2"
  name: "pool1/3x3_s2"
  type: "Pooling"
  pooling_param {
    pool: MAX
    kernel_size: 3
    stride: 2
  }
}
layer {
  bottom: "pool1/3x3_s2"
  top: "conv2/3x3_reduce"
  name: "conv2/3x3_reduce"
  type: "Convolution"
  param {
    lr_mult: 1
    decay_mult: 1
  }
  convolution_param {
    num_output: 64
    pad: 0
    kernel_size: 1
    stride: 1
    weight_filler {
      type: "xavier"
    }
    bias_term: false
  }
}
layer {
  bottom: "conv2/3x3_reduce"
  name: "conv2/3x3_reduce/bn"
  top: "conv2/3x3_reduce/bn"
  type: "BatchNorm"
  param {
    lr_mult: 1
    decay_mult: 1
  }
  param {
    lr_mult: 1
    decay_mult: 1
  }
  param {
    lr_mult: 1
    decay_mult: 1
  }
}
layer {
  bottom: "conv2/3x3_reduce/bn"
  top: "conv2/3x3_reduce/bn/sc"
  name: "conv2/3x3_reduce/bn/sc"
  type: "Scale"
  param {
    lr_mult: 1
    decay_mult: 1
  }
  param {
    lr_mult: 1
    decay_mult: 1
  }
  scale_param {
    bias_term: true
  }
}
layer {
  bottom: "conv2/3x3_reduce/bn/sc"
  top: "conv2/3x3_reduce/bn/sc"
  name: "conv2/3x3_reduce/bn/sc/relu"
  type: "ReLU"
}
layer {
  bottom: "conv2/3x3_reduce/bn/sc"
  top: "conv2/3x3"
  name: "conv2/3x3"
  type: "Convolution"
  param {
    lr_mult: 1
    decay_mult: 1
  }
  convolution_param {
    num_output: 192
    pad: 1
    kernel_size: 3
    stride: 1
    weight_filler {
      type: "xavier"
    }
    bias_term: false
  }
}
layer {
  bottom: "conv2/3x3"
  name: "conv2/3x3/bn"
  top: "conv2/3x3/bn"
  type: "BatchNorm"
  param {
    lr_mult: 1
    decay_mult: 1
  }
  param {
    lr_mult: 1
    decay_mult: 1
  }
  param {
    lr_mult: 1
    decay_mult: 1
  }
}
layer {
  bottom: "conv2/3x3/bn"
  top: "conv2/3x3/bn/sc"
  name: "conv2/3x3/bn/sc"
  type: "Scale"
  param {
    lr_mult: 1
    decay_mult: 1
  }
  param {
    lr_mult: 1
    decay_mult: 1
  }
  scale_param {
    bias_term: true
  }
}
layer {
  bottom: "conv2/3x3/bn/sc"
  top: "conv2/3x3/bn/sc"
  name: "conv2/3x3/bn/sc/relu"
  type: "ReLU"
}
layer {
  bottom: "conv2/3x3/bn/sc"
  top: "pool2/3x3_s2"
  name: "pool2/3x3_s2"
  type: "Pooling"
  pooling_param {
    pool: MAX
    kernel_size: 3
    stride: 2
  }
}
layer {
  bottom: "pool2/3x3_s2"
  top: "inception_3a/1x1"
  name: "inception_3a/1x1"
  type: "Convolution"
  param {
    lr_mult: 1
    decay_mult: 1
  }
  convolution_param {
    num_output: 64
    pad: 0
    kernel_size: 1
    stride: 1
    weight_filler {
      type: "xavier"
    }
    bias_term: false
  }
}
layer {
  bottom: "inception_3a/1x1"
  name: "inception_3a/1x1/bn"
  top: "inception_3a/1x1/bn"
  type: "BatchNorm"
  param {
    lr_mult: 1
    decay_mult: 1
  }
  param {
    lr_mult: 1
    decay_mult: 1
  }
  param {
    lr_mult: 1
    decay_mult: 1
  }
}
layer {
  bottom: "inception_3a/1x1/bn"
  top: "inception_3a/1x1/bn/sc"
  name: "inception_3a/1x1/bn/sc"
  type: "Scale"
  param {
    lr_mult: 1
    decay_mult: 1
  }
  param {
    lr_mult: 1
    decay_mult: 1
  }
  scale_param {
    bias_term: true
  }
}
layer {
  bottom: "inception_3a/1x1/bn/sc"
  top: "inception_3a/1x1/bn/sc"
  name: "inception_3a/1x1/bn/sc/relu"
  type: "ReLU"
}
layer {
  bottom: "pool2/3x3_s2"
  top: "inception_3a/3x3_reduce"
  name: "inception_3a/3x3_reduce"
  type: "Convolution"
  param {
    lr_mult: 1
    decay_mult: 1
  }
  convolution_param {
    num_output: 64
    pad: 0
    kernel_size: 1
    stride: 1
    weight_filler {
      type: "xavier"
    }
    bias_term: false
  }
}
layer {
  bottom: "inception_3a/3x3_reduce"
  name: "inception_3a/3x3_reduce/bn"
  top: "inception_3a/3x3_reduce/bn"
  type: "BatchNorm"
  param {
    lr_mult: 1
    decay_mult: 1
  }
  param {
    lr_mult: 1
    decay_mult: 1
  }
  param {
    lr_mult: 1
    decay_mult: 1
  }
}
layer {
  bottom: "inception_3a/3x3_reduce/bn"
  top: "inception_3a/3x3_reduce/bn/sc"
  name: "inception_3a/3x3_reduce/bn/sc"
  type: "Scale"
  param {
    lr_mult: 1
    decay_mult: 1
  }
  param {
    lr_mult: 1
    decay_mult: 1
  }
  scale_param {
    bias_term: true
  }
}
layer {
  bottom: "inception_3a/3x3_reduce/bn/sc"
  top: "inception_3a/3x3_reduce/bn/sc"
  name: "inception_3a/3x3_reduce/bn/sc/relu"
  type: "ReLU"
}
layer {
  bottom: "inception_3a/3x3_reduce/bn/sc"
  top: "inception_3a/3x3"
  name: "inception_3a/3x3"
  type: "Convolution"
  param {
    lr_mult: 1
    decay_mult: 1
  }
  convolution_param {
    num_output: 64
    pad: 1
    kernel_size: 3
    stride: 1
    weight_filler {
      type: "xavier"
    }
    bias_term: false
  }
}
layer {
  bottom: "inception_3a/3x3"
  name: "inception_3a/3x3/bn"
  top: "inception_3a/3x3/bn"
  type: "BatchNorm"
  param {
    lr_mult: 1
    decay_mult: 1
  }
  param {
    lr_mult: 1
    decay_mult: 1
  }
  param {
    lr_mult: 1
    decay_mult: 1
  }
}
layer {
  bottom: "inception_3a/3x3/bn"
  top: "inception_3a/3x3/bn/sc"
  name: "inception_3a/3x3/bn/sc"
  type: "Scale"
  param {
    lr_mult: 1
    decay_mult: 1
  }
  param {
    lr_mult: 1
    decay_mult: 1
  }
  scale_param {
    bias_term: true
  }
}
layer {
  bottom: "inception_3a/3x3/bn/sc"
  top: "inception_3a/3x3/bn/sc"
  name: "inception_3a/3x3/bn/sc/relu"
  type: "ReLU"
}
layer {
  bottom: "pool2/3x3_s2"
  top: "inception_3a/double3x3_reduce"
  name: "inception_3a/double3x3_reduce"
  type: "Convolution"
  param {
    lr_mult: 1
    decay_mult: 1
  }
  convolution_param {
    num_output: 64
    pad: 0
    kernel_size: 1
    stride: 1
    weight_filler {
      type: "xavier"
    }
    bias_term: false
  }
}
layer {
  bottom: "inception_3a/double3x3_reduce"
  name: "inception_3a/double3x3_reduce/bn"
  top: "inception_3a/double3x3_reduce/bn"
  type: "BatchNorm"
  param {
    lr_mult: 1
    decay_mult: 1
  }
  param {
    lr_mult: 1
    decay_mult: 1
  }
  param {
    lr_mult: 1
    decay_mult: 1
  }
}
layer {
  bottom: "inception_3a/double3x3_reduce/bn"
  top: "inception_3a/double3x3_reduce/bn/sc"
  name: "inception_3a/double3x3_reduce/bn/sc"
  type: "Scale"
  param {
    lr_mult: 1
    decay_mult: 1
  }
  param {
    lr_mult: 1
    decay_mult: 1
  }
  scale_param {
    bias_term: true
  }
}
layer {
  bottom: "inception_3a/double3x3_reduce/bn/sc"
  top: "inception_3a/double3x3_reduce/bn/sc"
  name: "inception_3a/double3x3_reduce/bn/sc/relu"
  type: "ReLU"
}
layer {
  bottom: "inception_3a/double3x3_reduce/bn/sc"
  top: "inception_3a/double3x3a"
  name: "inception_3a/double3x3a"
  type: "Convolution"
  param {
    lr_mult: 1
    decay_mult: 1
  }
  convolution_param {
    num_output: 96
    pad: 1
    kernel_size: 3
    stride: 1
    weight_filler {
      type: "xavier"
    }
    bias_term: false
  }
}
layer {
  bottom: "inception_3a/double3x3a"
  name: "inception_3a/double3x3a/bn"
  top: "inception_3a/double3x3a/bn"
  type: "BatchNorm"
  param {
    lr_mult: 1
    decay_mult: 1
  }
  param {
    lr_mult: 1
    decay_mult: 1
  }
  param {
    lr_mult: 1
    decay_mult: 1
  }
}
layer {
  bottom: "inception_3a/double3x3a/bn"
  top: "inception_3a/double3x3a/bn/sc"
  name: "inception_3a/double3x3a/bn/sc"
  type: "Scale"
  param {
    lr_mult: 1
    decay_mult: 1
  }
  param {
    lr_mult: 1
    decay_mult: 1
  }
  scale_param {
    bias_term: true
  }
}
layer {
  bottom: "inception_3a/double3x3a/bn/sc"
  top: "inception_3a/double3x3a/bn/sc"
  name: "inception_3a/double3x3a/bn/sc/relu"
  type: "ReLU"
}
layer {
  bottom: "inception_3a/double3x3a/bn/sc"
  top: "inception_3a/double3x3b"
  name: "inception_3a/double3x3b"
  type: "Convolution"
  param {
    lr_mult: 1
    decay_mult: 1
  }
  convolution_param {
    num_output: 96
    pad: 1
    kernel_size: 3
    stride: 1
    weight_filler {
      type: "xavier"
    }
    bias_term: false
  }
}
layer {
  bottom: "inception_3a/double3x3b"
  name: "inception_3a/double3x3b/bn"
  top: "inception_3a/double3x3b/bn"
  type: "BatchNorm"
  param {
    lr_mult: 1
    decay_mult: 1
  }
  param {
    lr_mult: 1
    decay_mult: 1
  }
  param {
    lr_mult: 1
    decay_mult: 1
  }
}
layer {
  bottom: "inception_3a/double3x3b/bn"
  top: "inception_3a/double3x3b/bn/sc"
  name: "inception_3a/double3x3b/bn/sc"
  type: "Scale"
  param {
    lr_mult: 1
    decay_mult: 1
  }
  param {
    lr_mult: 1
    decay_mult: 1
  }
  scale_param {
    bias_term: true
  }
}
layer {
  bottom: "inception_3a/double3x3b/bn/sc"
  top: "inception_3a/double3x3b/bn/sc"
  name: "inception_3a/double3x3b/bn/sc/relu"
  type: "ReLU"
}
layer {
  bottom: "pool2/3x3_s2"
  top: "inception_3a/pool"
  name: "inception_3a/pool"
  type: "Pooling"
  pooling_param {
    pool: AVE
    kernel_size: 3
    stride: 1
    pad: 1
  }
}
layer {
  bottom: "inception_3a/pool"
  top: "inception_3a/pool_proj"
  name: "inception_3a/pool_proj"
  type: "Convolution"
  param {
    lr_mult: 1
    decay_mult: 1
  }
  convolution_param {
    num_output: 32
    pad: 0
    kernel_size: 1
    stride: 1
    weight_filler {
      type: "xavier"
    }
    bias_term: false
  }
}
layer {
  bottom: "inception_3a/pool_proj"
  name: "inception_3a/pool_proj/bn"
  top: "inception_3a/pool_proj/bn"
  type: "BatchNorm"
  param {
    lr_mult: 1
    decay_mult: 1
  }
  param {
    lr_mult: 1
    decay_mult: 1
  }
  param {
    lr_mult: 1
    decay_mult: 1
  }
}
layer {
  bottom: "inception_3a/pool_proj/bn"
  top: "inception_3a/pool_proj/bn/sc"
  name: "inception_3a/pool_proj/bn/sc"
  type: "Scale"
  param {
    lr_mult: 1
    decay_mult: 1
  }
  param {
    lr_mult: 1
    decay_mult: 1
  }
  scale_param {
    bias_term: true
  }
}
layer {
  bottom: "inception_3a/pool_proj/bn/sc"
  top: "inception_3a/pool_proj/bn/sc"
  name: "inception_3a/pool_proj/bn/sc/relu"
  type: "ReLU"
}
layer {
  bottom: "inception_3a/1x1/bn/sc"
  bottom: "inception_3a/3x3/bn/sc"
  bottom: "inception_3a/double3x3b/bn/sc"
  bottom: "inception_3a/pool_proj/bn/sc"
  top: "inception_3a/output"
  name: "inception_3a/output"
  type: "Concat"
}
layer {
  bottom: "inception_3a/output"
  top: "inception_3b/1x1"
  name: "inception_3b/1x1"
  type: "Convolution"
  param {
    lr_mult: 1
    decay_mult: 1
  }
  convolution_param {
    num_output: 64
    pad: 0
    kernel_size: 1
    stride: 1
    weight_filler {
      type: "xavier"
    }
    bias_term: false
  }
}
layer {
  bottom: "inception_3b/1x1"
  name: "inception_3b/1x1/bn"
  top: "inception_3b/1x1/bn"
  type: "BatchNorm"
  param {
    lr_mult: 1
    decay_mult: 1
  }
  param {
    lr_mult: 1
    decay_mult: 1
  }
  param {
    lr_mult: 1
    decay_mult: 1
  }
}
layer {
  bottom: "inception_3b/1x1/bn"
  top: "inception_3b/1x1/bn/sc"
  name: "inception_3b/1x1/bn/sc"
  type: "Scale"
  param {
    lr_mult: 1
    decay_mult: 1
  }
  param {
    lr_mult: 1
    decay_mult: 1
  }
  scale_param {
    bias_term: true
  }
}
layer {
  bottom: "inception_3b/1x1/bn/sc"
  top: "inception_3b/1x1/bn/sc"
  name: "inception_3b/1x1/bn/sc/relu"
  type: "ReLU"
}
layer {
  bottom: "inception_3a/output"
  top: "inception_3b/3x3_reduce"
  name: "inception_3b/3x3_reduce"
  type: "Convolution"
  param {
    lr_mult: 1
    decay_mult: 1
  }
  convolution_param {
    num_output: 64
    pad: 0
    kernel_size: 1
    stride: 1
    weight_filler {
      type: "xavier"
    }
    bias_term: false
  }
}
layer {
  bottom: "inception_3b/3x3_reduce"
  name: "inception_3b/3x3_reduce/bn"
  top: "inception_3b/3x3_reduce/bn"
  type: "BatchNorm"
  param {
    lr_mult: 1
    decay_mult: 1
  }
  param {
    lr_mult: 1
    decay_mult: 1
  }
  param {
    lr_mult: 1
    decay_mult: 1
  }
}
layer {
  bottom: "inception_3b/3x3_reduce/bn"
  top: "inception_3b/3x3_reduce/bn/sc"
  name: "inception_3b/3x3_reduce/bn/sc"
  type: "Scale"
  param {
    lr_mult: 1
    decay_mult: 1
  }
  param {
    lr_mult: 1
    decay_mult: 1
  }
  scale_param {
    bias_term: true
  }
}
layer {
  bottom: "inception_3b/3x3_reduce/bn/sc"
  top: "inception_3b/3x3_reduce/bn/sc"
  name: "inception_3b/3x3_reduce/bn/sc/relu"
  type: "ReLU"
}
layer {
  bottom: "inception_3b/3x3_reduce/bn/sc"
  top: "inception_3b/3x3"
  name: "inception_3b/3x3"
  type: "Convolution"
  param {
    lr_mult: 1
    decay_mult: 1
  }
  convolution_param {
    num_output: 96
    pad: 1
    kernel_size: 3
    stride: 1
    weight_filler {
      type: "xavier"
    }
    bias_term: false
  }
}
layer {
  bottom: "inception_3b/3x3"
  name: "inception_3b/3x3/bn"
  top: "inception_3b/3x3/bn"
  type: "BatchNorm"
  param {
    lr_mult: 1
    decay_mult: 1
  }
  param {
    lr_mult: 1
    decay_mult: 1
  }
  param {
    lr_mult: 1
    decay_mult: 1
  }
}
layer {
  bottom: "inception_3b/3x3/bn"
  top: "inception_3b/3x3/bn/sc"
  name: "inception_3b/3x3/bn/sc"
  type: "Scale"
  param {
    lr_mult: 1
    decay_mult: 1
  }
  param {
    lr_mult: 1
    decay_mult: 1
  }
  scale_param {
    bias_term: true
  }
}
layer {
  bottom: "inception_3b/3x3/bn/sc"
  top: "inception_3b/3x3/bn/sc"
  name: "inception_3b/3x3/bn/sc/relu"
  type: "ReLU"
}
layer {
  bottom: "inception_3a/output"
  top: "inception_3b/double3x3_reduce"
  name: "inception_3b/double3x3_reduce"
  type: "Convolution"
  param {
    lr_mult: 1
    decay_mult: 1
  }
  convolution_param {
    num_output: 64
    pad: 0
    kernel_size: 1
    stride: 1
    weight_filler {
      type: "xavier"
    }
    bias_term: false
  }
}
layer {
  bottom: "inception_3b/double3x3_reduce"
  name: "inception_3b/double3x3_reduce/bn"
  top: "inception_3b/double3x3_reduce/bn"
  type: "BatchNorm"
  param {
    lr_mult: 1
    decay_mult: 1
  }
  param {
    lr_mult: 1
    decay_mult: 1
  }
  param {
    lr_mult: 1
    decay_mult: 1
  }
}
layer {
  bottom: "inception_3b/double3x3_reduce/bn"
  top: "inception_3b/double3x3_reduce/bn/sc"
  name: "inception_3b/double3x3_reduce/bn/sc"
  type: "Scale"
  param {
    lr_mult: 1
    decay_mult: 1
  }
  param {
    lr_mult: 1
    decay_mult: 1
  }
  scale_param {
    bias_term: true
  }
}
layer {
  bottom: "inception_3b/double3x3_reduce/bn/sc"
  top: "inception_3b/double3x3_reduce/bn/sc"
  name: "inception_3b/double3x3_reduce/bn/sc/relu"
  type: "ReLU"
}
layer {
  bottom: "inception_3b/double3x3_reduce/bn/sc"
  top: "inception_3b/double3x3a"
  name: "inception_3b/double3x3a"
  type: "Convolution"
  param {
    lr_mult: 1
    decay_mult: 1
  }
  convolution_param {
    num_output: 96
    pad: 1
    kernel_size: 3
    stride: 1
    weight_filler {
      type: "xavier"
    }
    bias_term: false
  }
}
layer {
  bottom: "inception_3b/double3x3a"
  name: "inception_3b/double3x3a/bn"
  top: "inception_3b/double3x3a/bn"
  type: "BatchNorm"
  param {
    lr_mult: 1
    decay_mult: 1
  }
  param {
    lr_mult: 1
    decay_mult: 1
  }
  param {
    lr_mult: 1
    decay_mult: 1
  }
}
layer {
  bottom: "inception_3b/double3x3a/bn"
  top: "inception_3b/double3x3a/bn/sc"
  name: "inception_3b/double3x3a/bn/sc"
  type: "Scale"
  param {
    lr_mult: 1
    decay_mult: 1
  }
  param {
    lr_mult: 1
    decay_mult: 1
  }
  scale_param {
    bias_term: true
  }
}
layer {
  bottom: "inception_3b/double3x3a/bn/sc"
  top: "inception_3b/double3x3a/bn/sc"
  name: "inception_3b/double3x3a/bn/sc/relu"
  type: "ReLU"
}
layer {
  bottom: "inception_3b/double3x3a/bn/sc"
  top: "inception_3b/double3x3b"
  name: "inception_3b/double3x3b"
  type: "Convolution"
  param {
    lr_mult: 1
    decay_mult: 1
  }
  convolution_param {
    num_output: 96
    pad: 1
    kernel_size: 3
    stride: 1
    weight_filler {
      type: "xavier"
    }
    bias_term: false
  }
}
layer {
  bottom: "inception_3b/double3x3b"
  name: "inception_3b/double3x3b/bn"
  top: "inception_3b/double3x3b/bn"
  type: "BatchNorm"
  param {
    lr_mult: 1
    decay_mult: 1
  }
  param {
    lr_mult: 1
    decay_mult: 1
  }
  param {
    lr_mult: 1
    decay_mult: 1
  }
}
layer {
  bottom: "inception_3b/double3x3b/bn"
  top: "inception_3b/double3x3b/bn/sc"
  name: "inception_3b/double3x3b/bn/sc"
  type: "Scale"
  param {
    lr_mult: 1
    decay_mult: 1
  }
  param {
    lr_mult: 1
    decay_mult: 1
  }
  scale_param {
    bias_term: true
  }
}
layer {
  bottom: "inception_3b/double3x3b/bn/sc"
  top: "inception_3b/double3x3b/bn/sc"
  name: "inception_3b/double3x3b/bn/sc/relu"
  type: "ReLU"
}
layer {
  bottom: "inception_3a/output"
  top: "inception_3b/pool"
  name: "inception_3b/pool"
  type: "Pooling"
  pooling_param {
    pool: AVE
    kernel_size: 3
    stride: 1
    pad: 1
  }
}
layer {
  bottom: "inception_3b/pool"
  top: "inception_3b/pool_proj"
  name: "inception_3b/pool_proj"
  type: "Convolution"
  param {
    lr_mult: 1
    decay_mult: 1
  }
  convolution_param {
    num_output: 64
    pad: 0
    kernel_size: 1
    stride: 1
    weight_filler {
      type: "xavier"
    }
    bias_term: false
  }
}
layer {
  bottom: "inception_3b/pool_proj"
  name: "inception_3b/pool_proj/bn"
  top: "inception_3b/pool_proj/bn"
  type: "BatchNorm"
  param {
    lr_mult: 1
    decay_mult: 1
  }
  param {
    lr_mult: 1
    decay_mult: 1
  }
  param {
    lr_mult: 1
    decay_mult: 1
  }
}
layer {
  bottom: "inception_3b/pool_proj/bn"
  top: "inception_3b/pool_proj/bn/sc"
  name: "inception_3b/pool_proj/bn/sc"
  type: "Scale"
  param {
    lr_mult: 1
    decay_mult: 1
  }
  param {
    lr_mult: 1
    decay_mult: 1
  }
  scale_param {
    bias_term: true
  }
}
layer {
  bottom: "inception_3b/pool_proj/bn/sc"
  top: "inception_3b/pool_proj/bn/sc"
  name: "inception_3b/pool_proj/bn/sc/relu"
  type: "ReLU"
}
layer {
  bottom: "inception_3b/1x1/bn/sc"
  bottom: "inception_3b/3x3/bn/sc"
  bottom: "inception_3b/double3x3b/bn/sc"
  bottom: "inception_3b/pool_proj/bn/sc"
  top: "inception_3b/output"
  name: "inception_3b/output"
  type: "Concat"
}
layer {
  bottom: "inception_3b/output"
  top: "inception_3c/3x3_reduce"
  name: "inception_3c/3x3_reduce"
  type: "Convolution"
  param {
    lr_mult: 1
    decay_mult: 1
  }
  convolution_param {
    num_output: 128
    pad: 0
    kernel_size: 1
    stride: 1
    weight_filler {
      type: "xavier"
    }
    bias_term: false
  }
}
layer {
  bottom: "inception_3c/3x3_reduce"
  name: "inception_3c/3x3_reduce/bn"
  top: "inception_3c/3x3_reduce/bn"
  type: "BatchNorm"
  param {
    lr_mult: 1
    decay_mult: 1
  }
  param {
    lr_mult: 1
    decay_mult: 1
  }
  param {
    lr_mult: 1
    decay_mult: 1
  }
}
layer {
  bottom: "inception_3c/3x3_reduce/bn"
  top: "inception_3c/3x3_reduce/bn/sc"
  name: "inception_3c/3x3_reduce/bn/sc"
  type: "Scale"
  param {
    lr_mult: 1
    decay_mult: 1
  }
  param {
    lr_mult: 1
    decay_mult: 1
  }
  scale_param {
    bias_term: true
  }
}
layer {
  bottom: "inception_3c/3x3_reduce/bn/sc"
  top: "inception_3c/3x3_reduce/bn/sc"
  name: "inception_3c/3x3_reduce/bn/sc/relu"
  type: "ReLU"
}
layer {
  bottom: "inception_3c/3x3_reduce/bn/sc"
  top: "inception_3c/3x3"
  name: "inception_3c/3x3"
  type: "Convolution"
  param {
    lr_mult: 1
    decay_mult: 1
  }
  convolution_param {
    num_output: 160
    pad: 1
    kernel_size: 3
    stride: 2
    weight_filler {
      type: "xavier"
    }
    bias_term: false
  }
}
layer {
  bottom: "inception_3c/3x3"
  name: "inception_3c/3x3/bn"
  top: "inception_3c/3x3/bn"
  type: "BatchNorm"
  param {
    lr_mult: 1
    decay_mult: 1
  }
  param {
    lr_mult: 1
    decay_mult: 1
  }
  param {
    lr_mult: 1
    decay_mult: 1
  }
}
layer {
  bottom: "inception_3c/3x3/bn"
  top: "inception_3c/3x3/bn/sc"
  name: "inception_3c/3x3/bn/sc"
  type: "Scale"
  param {
    lr_mult: 1
    decay_mult: 1
  }
  param {
    lr_mult: 1
    decay_mult: 1
  }
  scale_param {
    bias_term: true
  }
}
layer {
  bottom: "inception_3c/3x3/bn/sc"
  top: "inception_3c/3x3/bn/sc"
  name: "inception_3c/3x3/bn/sc/relu"
  type: "ReLU"
}
layer {
  bottom: "inception_3b/output"
  top: "inception_3c/double3x3_reduce"
  name: "inception_3c/double3x3_reduce"
  type: "Convolution"
  param {
    lr_mult: 1
    decay_mult: 1
  }
  convolution_param {
    num_output: 64
    pad: 0
    kernel_size: 1
    stride: 1
    weight_filler {
      type: "xavier"
    }
    bias_term: false
  }
}
layer {
  bottom: "inception_3c/double3x3_reduce"
  name: "inception_3c/double3x3_reduce/bn"
  top: "inception_3c/double3x3_reduce/bn"
  type: "BatchNorm"
  param {
    lr_mult: 1
    decay_mult: 1
  }
  param {
    lr_mult: 1
    decay_mult: 1
  }
  param {
    lr_mult: 1
    decay_mult: 1
  }
}
layer {
  bottom: "inception_3c/double3x3_reduce/bn"
  top: "inception_3c/double3x3_reduce/bn/sc"
  name: "inception_3c/double3x3_reduce/bn/sc"
  type: "Scale"
  param {
    lr_mult: 1
    decay_mult: 1
  }
  param {
    lr_mult: 1
    decay_mult: 1
  }
  scale_param {
    bias_term: true
  }
}
layer {
  bottom: "inception_3c/double3x3_reduce/bn/sc"
  top: "inception_3c/double3x3_reduce/bn/sc"
  name: "inception_3c/double3x3_reduce/bn/sc/relu"
  type: "ReLU"
}
layer {
  bottom: "inception_3c/double3x3_reduce/bn/sc"
  top: "inception_3c/double3x3a"
  name: "inception_3c/double3x3a"
  type: "Convolution"
  param {
    lr_mult: 1
    decay_mult: 1
  }
  convolution_param {
    num_output: 96
    pad: 1
    kernel_size: 3
    stride: 1
    weight_filler {
      type: "xavier"
    }
    bias_term: false
  }
}
layer {
  bottom: "inception_3c/double3x3a"
  name: "inception_3c/double3x3a/bn"
  top: "inception_3c/double3x3a/bn"
  type: "BatchNorm"
  param {
    lr_mult: 1
    decay_mult: 1
  }
  param {
    lr_mult: 1
    decay_mult: 1
  }
  param {
    lr_mult: 1
    decay_mult: 1
  }
}
layer {
  bottom: "inception_3c/double3x3a/bn"
  top: "inception_3c/double3x3a/bn/sc"
  name: "inception_3c/double3x3a/bn/sc"
  type: "Scale"
  param {
    lr_mult: 1
    decay_mult: 1
  }
  param {
    lr_mult: 1
    decay_mult: 1
  }
  scale_param {
    bias_term: true
  }
}
layer {
  bottom: "inception_3c/double3x3a/bn/sc"
  top: "inception_3c/double3x3a/bn/sc"
  name: "inception_3c/double3x3a/bn/sc/relu"
  type: "ReLU"
}
layer {
  bottom: "inception_3c/double3x3a/bn/sc"
  top: "inception_3c/double3x3b"
  name: "inception_3c/double3x3b"
  type: "Convolution"
  param {
    lr_mult: 1
    decay_mult: 1
  }
  convolution_param {
    num_output: 96
    pad: 1
    kernel_size: 3
    stride: 2
    weight_filler {
      type: "xavier"
    }
    bias_term: false
  }
}
layer {
  bottom: "inception_3c/double3x3b"
  name: "inception_3c/double3x3b/bn"
  top: "inception_3c/double3x3b/bn"
  type: "BatchNorm"
  param {
    lr_mult: 1
    decay_mult: 1
  }
  param {
    lr_mult: 1
    decay_mult: 1
  }
  param {
    lr_mult: 1
    decay_mult: 1
  }
}
layer {
  bottom: "inception_3c/double3x3b/bn"
  top: "inception_3c/double3x3b/bn/sc"
  name: "inception_3c/double3x3b/bn/sc"
  type: "Scale"
  param {
    lr_mult: 1
    decay_mult: 1
  }
  param {
    lr_mult: 1
    decay_mult: 1
  }
  scale_param {
    bias_term: true
  }
}
layer {
  bottom: "inception_3c/double3x3b/bn/sc"
  top: "inception_3c/double3x3b/bn/sc"
  name: "inception_3c/double3x3b/bn/sc/relu"
  type: "ReLU"
}
layer {
  bottom: "inception_3b/output"
  top: "inception_3c/pool"
  name: "inception_3c/pool"
  type: "Pooling"
  pooling_param {
    pool: MAX
    kernel_size: 3
    stride: 2
  }
}
layer {
  bottom: "inception_3c/3x3/bn/sc"
  bottom: "inception_3c/double3x3b/bn/sc"
  bottom: "inception_3c/pool"
  top: "inception_3c/output"
  name: "inception_3c/output"
  type: "Concat"
}

layer {
  bottom: "inception_3c/output"
  top: "inception_4a/1x1"
  name: "inception_4a/1x1"
  type: "Convolution"
  param {
    lr_mult: 1
    decay_mult: 1
  }
  convolution_param {
    num_output: 224
    pad: 0
    kernel_size: 1
    stride: 1
    weight_filler {
      type: "xavier"
    }
    bias_term: false
  }
}
layer {
  bottom: "inception_4a/1x1"
  name: "inception_4a/1x1/bn"
  top: "inception_4a/1x1/bn"
  type: "BatchNorm"
  param {
    lr_mult: 1
    decay_mult: 1
  }
  param {
    lr_mult: 1
    decay_mult: 1
  }
  param {
    lr_mult: 1
    decay_mult: 1
  }
}
layer {
  bottom: "inception_4a/1x1/bn"
  top: "inception_4a/1x1/bn/sc"
  name: "inception_4a/1x1/bn/sc"
  type: "Scale"
  param {
    lr_mult: 1
    decay_mult: 1
  }
  param {
    lr_mult: 1
    decay_mult: 1
  }
  scale_param {
    bias_term: true
  }
}
layer {
  bottom: "inception_4a/1x1/bn/sc"
  top: "inception_4a/1x1/bn/sc"
  name: "inception_4a/1x1/bn/sc/relu"
  type: "ReLU"
}
layer {
  bottom: "inception_3c/output"
  top: "inception_4a/3x3_reduce"
  name: "inception_4a/3x3_reduce"
  type: "Convolution"
  param {
    lr_mult: 1
    decay_mult: 1
  }
  convolution_param {
    num_output: 64
    pad: 0
    kernel_size: 1
    stride: 1
    weight_filler {
      type: "xavier"
    }
    bias_term: false
  }
}
layer {
  bottom: "inception_4a/3x3_reduce"
  name: "inception_4a/3x3_reduce/bn"
  top: "inception_4a/3x3_reduce/bn"
  type: "BatchNorm"
  param {
    lr_mult: 1
    decay_mult: 1
  }
  param {
    lr_mult: 1
    decay_mult: 1
  }
  param {
    lr_mult: 1
    decay_mult: 1
  }
}
layer {
  bottom: "inception_4a/3x3_reduce/bn"
  top: "inception_4a/3x3_reduce/bn/sc"
  name: "inception_4a/3x3_reduce/bn/sc"
  type: "Scale"
  param {
    lr_mult: 1
    decay_mult: 1
  }
  param {
    lr_mult: 1
    decay_mult: 1
  }
  scale_param {
    bias_term: true
  }
}
layer {
  bottom: "inception_4a/3x3_reduce/bn/sc"
  top: "inception_4a/3x3_reduce/bn/sc"
  name: "inception_4a/3x3_reduce/bn/sc/relu"
  type: "ReLU"
}
layer {
  bottom: "inception_4a/3x3_reduce/bn/sc"
  top: "inception_4a/3x3"
  name: "inception_4a/3x3"
  type: "Convolution"
  param {
    lr_mult: 1
    decay_mult: 1
  }
  convolution_param {
    num_output: 96
    pad: 1
    kernel_size: 3
    stride: 1
    weight_filler {
      type: "xavier"
    }
    bias_term: false
  }
}
layer {
  bottom: "inception_4a/3x3"
  name: "inception_4a/3x3/bn"
  top: "inception_4a/3x3/bn"
  type: "BatchNorm"
  param {
    lr_mult: 1
    decay_mult: 1
  }
  param {
    lr_mult: 1
    decay_mult: 1
  }
  param {
    lr_mult: 1
    decay_mult: 1
  }
}
layer {
  bottom: "inception_4a/3x3/bn"
  top: "inception_4a/3x3/bn/sc"
  name: "inception_4a/3x3/bn/sc"
  type: "Scale"
  param {
    lr_mult: 1
    decay_mult: 1
  }
  param {
    lr_mult: 1
    decay_mult: 1
  }
  scale_param {
    bias_term: true
  }
}
layer {
  bottom: "inception_4a/3x3/bn/sc"
  top: "inception_4a/3x3/bn/sc"
  name: "inception_4a/3x3/bn/sc/relu"
  type: "ReLU"
}
layer {
  bottom: "inception_3c/output"
  top: "inception_4a/double3x3_reduce"
  name: "inception_4a/double3x3_reduce"
  type: "Convolution"
  param {
    lr_mult: 1
    decay_mult: 1
  }
  convolution_param {
    num_output: 96
    pad: 0
    kernel_size: 1
    stride: 1
    weight_filler {
      type: "xavier"
    }
    bias_term: false
  }
}
layer {
  bottom: "inception_4a/double3x3_reduce"
  name: "inception_4a/double3x3_reduce/bn"
  top: "inception_4a/double3x3_reduce/bn"
  type: "BatchNorm"
  param {
    lr_mult: 1
    decay_mult: 1
  }
  param {
    lr_mult: 1
    decay_mult: 1
  }
  param {
    lr_mult: 1
    decay_mult: 1
  }
}
layer {
  bottom: "inception_4a/double3x3_reduce/bn"
  top: "inception_4a/double3x3_reduce/bn/sc"
  name: "inception_4a/double3x3_reduce/bn/sc"
  type: "Scale"
  param {
    lr_mult: 1
    decay_mult: 1
  }
  param {
    lr_mult: 1
    decay_mult: 1
  }
  scale_param {
    bias_term: true
  }
}
layer {
  bottom: "inception_4a/double3x3_reduce/bn/sc"
  top: "inception_4a/double3x3_reduce/bn/sc"
  name: "inception_4a/double3x3_reduce/bn/sc/relu"
  type: "ReLU"
}
layer {
  bottom: "inception_4a/double3x3_reduce/bn/sc"
  top: "inception_4a/double3x3a"
  name: "inception_4a/double3x3a"
  type: "Convolution"
  param {
    lr_mult: 1
    decay_mult: 1
  }
  convolution_param {
    num_output: 128
    pad: 1
    kernel_size: 3
    stride: 1
    weight_filler {
      type: "xavier"
    }
    bias_term: false
  }
}
layer {
  bottom: "inception_4a/double3x3a"
  name: "inception_4a/double3x3a/bn"
  top: "inception_4a/double3x3a/bn"
  type: "BatchNorm"
  param {
    lr_mult: 1
    decay_mult: 1
  }
  param {
    lr_mult: 1
    decay_mult: 1
  }
  param {
    lr_mult: 1
    decay_mult: 1
  }
}
layer {
  bottom: "inception_4a/double3x3a/bn"
  top: "inception_4a/double3x3a/bn/sc"
  name: "inception_4a/double3x3a/bn/sc"
  type: "Scale"
  param {
    lr_mult: 1
    decay_mult: 1
  }
  param {
    lr_mult: 1
    decay_mult: 1
  }
  scale_param {
    bias_term: true
  }
}
layer {
  bottom: "inception_4a/double3x3a/bn/sc"
  top: "inception_4a/double3x3a/bn/sc"
  name: "inception_4a/double3x3a/bn/sc/relu"
  type: "ReLU"
}
layer {
  bottom: "inception_4a/double3x3a/bn/sc"
  top: "inception_4a/double3x3b"
  name: "inception_4a/double3x3b"
  type: "Convolution"
  param {
    lr_mult: 1
    decay_mult: 1
  }
  convolution_param {
    num_output: 128
    pad: 1
    kernel_size: 3
    stride: 1
    weight_filler {
      type: "xavier"
    }
    bias_term: false
  }
}
layer {
  bottom: "inception_4a/double3x3b"
  name: "inception_4a/double3x3b/bn"
  top: "inception_4a/double3x3b/bn"
  type: "BatchNorm"
  param {
    lr_mult: 1
    decay_mult: 1
  }
  param {
    lr_mult: 1
    decay_mult: 1
  }
  param {
    lr_mult: 1
    decay_mult: 1
  }
}
layer {
  bottom: "inception_4a/double3x3b/bn"
  top: "inception_4a/double3x3b/bn/sc"
  name: "inception_4a/double3x3b/bn/sc"
  type: "Scale"
  param {
    lr_mult: 1
    decay_mult: 1
  }
  param {
    lr_mult: 1
    decay_mult: 1
  }
  scale_param {
    bias_term: true
  }
}
layer {
  bottom: "inception_4a/double3x3b/bn/sc"
  top: "inception_4a/double3x3b/bn/sc"
  name: "inception_4a/double3x3b/bn/sc/relu"
  type: "ReLU"
}
layer {
  bottom: "inception_3c/output"
  top: "inception_4a/pool"
  name: "inception_4a/pool"
  type: "Pooling"
  pooling_param {
    pool: AVE
    kernel_size: 3
    stride: 1
    pad: 1
  }
}
layer {
  bottom: "inception_4a/pool"
  top: "inception_4a/pool_proj"
  name: "inception_4a/pool_proj"
  type: "Convolution"
  param {
    lr_mult: 1
    decay_mult: 1
  }
  convolution_param {
    num_output: 128
    pad: 0
    kernel_size: 1
    stride: 1
    weight_filler {
      type: "xavier"
    }
    bias_term: false
  }
}
layer {
  bottom: "inception_4a/pool_proj"
  name: "inception_4a/pool_proj/bn"
  top: "inception_4a/pool_proj/bn"
  type: "BatchNorm"
  param {
    lr_mult: 1
    decay_mult: 1
  }
  param {
    lr_mult: 1
    decay_mult: 1
  }
  param {
    lr_mult: 1
    decay_mult: 1
  }
}
layer {
  bottom: "inception_4a/pool_proj/bn"
  top: "inception_4a/pool_proj/bn/sc"
  name: "inception_4a/pool_proj/bn/sc"
  type: "Scale"
  param {
    lr_mult: 1
    decay_mult: 1
  }
  param {
    lr_mult: 1
    decay_mult: 1
  }
  scale_param {
    bias_term: true
  }
}
layer {
  bottom: "inception_4a/pool_proj/bn/sc"
  top: "inception_4a/pool_proj/bn/sc"
  name: "inception_4a/pool_proj/bn/sc/relu"
  type: "ReLU"
}
layer {
  bottom: "inception_4a/1x1/bn/sc"
  bottom: "inception_4a/3x3/bn/sc"
  bottom: "inception_4a/double3x3b/bn/sc"
  bottom: "inception_4a/pool_proj/bn/sc"
  top: "inception_4a/output"
  name: "inception_4a/output"
  type: "Concat"
}
layer {
  bottom: "inception_4a/output"
  top: "inception_4b/1x1"
  name: "inception_4b/1x1"
  type: "Convolution"
  param {
    lr_mult: 1
    decay_mult: 1
  }
  convolution_param {
    num_output: 192
    pad: 0
    kernel_size: 1
    stride: 1
    weight_filler {
      type: "xavier"
    }
    bias_term: false
  }
}
layer {
  bottom: "inception_4b/1x1"
  name: "inception_4b/1x1/bn"
  top: "inception_4b/1x1/bn"
  type: "BatchNorm"
  param {
    lr_mult: 1
    decay_mult: 1
  }
  param {
    lr_mult: 1
    decay_mult: 1
  }
  param {
    lr_mult: 1
    decay_mult: 1
  }
}
layer {
  bottom: "inception_4b/1x1/bn"
  top: "inception_4b/1x1/bn/sc"
  name: "inception_4b/1x1/bn/sc"
  type: "Scale"
  param {
    lr_mult: 1
    decay_mult: 1
  }
  param {
    lr_mult: 1
    decay_mult: 1
  }
  scale_param {
    bias_term: true
  }
}
layer {
  bottom: "inception_4b/1x1/bn/sc"
  top: "inception_4b/1x1/bn/sc"
  name: "inception_4b/1x1/bn/sc/relu"
  type: "ReLU"
}
layer {
  bottom: "inception_4a/output"
  top: "inception_4b/3x3_reduce"
  name: "inception_4b/3x3_reduce"
  type: "Convolution"
  param {
    lr_mult: 1
    decay_mult: 1
  }
  convolution_param {
    num_output: 96
    pad: 0
    kernel_size: 1
    stride: 1
    weight_filler {
      type: "xavier"
    }
    bias_term: false
  }
}
layer {
  bottom: "inception_4b/3x3_reduce"
  name: "inception_4b/3x3_reduce/bn"
  top: "inception_4b/3x3_reduce/bn"
  type: "BatchNorm"
  param {
    lr_mult: 1
    decay_mult: 1
  }
  param {
    lr_mult: 1
    decay_mult: 1
  }
  param {
    lr_mult: 1
    decay_mult: 1
  }
}
layer {
  bottom: "inception_4b/3x3_reduce/bn"
  top: "inception_4b/3x3_reduce/bn/sc"
  name: "inception_4b/3x3_reduce/bn/sc"
  type: "Scale"
  param {
    lr_mult: 1
    decay_mult: 1
  }
  param {
    lr_mult: 1
    decay_mult: 1
  }
  scale_param {
    bias_term: true
  }
}
layer {
  bottom: "inception_4b/3x3_reduce/bn/sc"
  top: "inception_4b/3x3_reduce/bn/sc"
  name: "inception_4b/3x3_reduce/bn/sc/relu"
  type: "ReLU"
}
layer {
  bottom: "inception_4b/3x3_reduce/bn/sc"
  top: "inception_4b/3x3"
  name: "inception_4b/3x3"
  type: "Convolution"
  param {
    lr_mult: 1
    decay_mult: 1
  }
  convolution_param {
    num_output: 128
    pad: 1
    kernel_size: 3
    stride: 1
    weight_filler {
      type: "xavier"
    }
    bias_term: false
  }
}
layer {
  bottom: "inception_4b/3x3"
  name: "inception_4b/3x3/bn"
  top: "inception_4b/3x3/bn"
  type: "BatchNorm"
  param {
    lr_mult: 1
    decay_mult: 1
  }
  param {
    lr_mult: 1
    decay_mult: 1
  }
  param {
    lr_mult: 1
    decay_mult: 1
  }
}
layer {
  bottom: "inception_4b/3x3/bn"
  top: "inception_4b/3x3/bn/sc"
  name: "inception_4b/3x3/bn/sc"
  type: "Scale"
  param {
    lr_mult: 1
    decay_mult: 1
  }
  param {
    lr_mult: 1
    decay_mult: 1
  }
  scale_param {
    bias_term: true
  }
}
layer {
  bottom: "inception_4b/3x3/bn/sc"
  top: "inception_4b/3x3/bn/sc"
  name: "inception_4b/3x3/bn/sc/relu"
  type: "ReLU"
}
layer {
  bottom: "inception_4a/output"
  top: "inception_4b/double3x3_reduce"
  name: "inception_4b/double3x3_reduce"
  type: "Convolution"
  param {
    lr_mult: 1
    decay_mult: 1
  }
  convolution_param {
    num_output: 96
    pad: 0
    kernel_size: 1
    stride: 1
    weight_filler {
      type: "xavier"
    }
    bias_term: false
  }
}
layer {
  bottom: "inception_4b/double3x3_reduce"
  name: "inception_4b/double3x3_reduce/bn"
  top: "inception_4b/double3x3_reduce/bn"
  type: "BatchNorm"
  param {
    lr_mult: 1
    decay_mult: 1
  }
  param {
    lr_mult: 1
    decay_mult: 1
  }
  param {
    lr_mult: 1
    decay_mult: 1
  }
}
layer {
  bottom: "inception_4b/double3x3_reduce/bn"
  top: "inception_4b/double3x3_reduce/bn/sc"
  name: "inception_4b/double3x3_reduce/bn/sc"
  type: "Scale"
  param {
    lr_mult: 1
    decay_mult: 1
  }
  param {
    lr_mult: 1
    decay_mult: 1
  }
  scale_param {
    bias_term: true
  }
}
layer {
  bottom: "inception_4b/double3x3_reduce/bn/sc"
  top: "inception_4b/double3x3_reduce/bn/sc"
  name: "inception_4b/double3x3_reduce/bn/sc/relu"
  type: "ReLU"
}
layer {
  bottom: "inception_4b/double3x3_reduce/bn/sc"
  top: "inception_4b/double3x3a"
  name: "inception_4b/double3x3a"
  type: "Convolution"
  param {
    lr_mult: 1
    decay_mult: 1
  }
  convolution_param {
    num_output: 128
    pad: 1
    kernel_size: 3
    stride: 1
    weight_filler {
      type: "xavier"
    }
    bias_term: false
  }
}
layer {
  bottom: "inception_4b/double3x3a"
  name: "inception_4b/double3x3a/bn"
  top: "inception_4b/double3x3a/bn"
  type: "BatchNorm"
  param {
    lr_mult: 1
    decay_mult: 1
  }
  param {
    lr_mult: 1
    decay_mult: 1
  }
  param {
    lr_mult: 1
    decay_mult: 1
  }
}
layer {
  bottom: "inception_4b/double3x3a/bn"
  top: "inception_4b/double3x3a/bn/sc"
  name: "inception_4b/double3x3a/bn/sc"
  type: "Scale"
  param {
    lr_mult: 1
    decay_mult: 1
  }
  param {
    lr_mult: 1
    decay_mult: 1
  }
  scale_param {
    bias_term: true
  }
}
layer {
  bottom: "inception_4b/double3x3a/bn/sc"
  top: "inception_4b/double3x3a/bn/sc"
  name: "inception_4b/double3x3a/bn/sc/relu"
  type: "ReLU"
}
layer {
  bottom: "inception_4b/double3x3a/bn/sc"
  top: "inception_4b/double3x3b"
  name: "inception_4b/double3x3b"
  type: "Convolution"
  param {
    lr_mult: 1
    decay_mult: 1
  }
  convolution_param {
    num_output: 128
    pad: 1
    kernel_size: 3
    stride: 1
    weight_filler {
      type: "xavier"
    }
    bias_term: false
  }
}
layer {
  bottom: "inception_4b/double3x3b"
  name: "inception_4b/double3x3b/bn"
  top: "inception_4b/double3x3b/bn"
  type: "BatchNorm"
  param {
    lr_mult: 1
    decay_mult: 1
  }
  param {
    lr_mult: 1
    decay_mult: 1
  }
  param {
    lr_mult: 1
    decay_mult: 1
  }
}
layer {
  bottom: "inception_4b/double3x3b/bn"
  top: "inception_4b/double3x3b/bn/sc"
  name: "inception_4b/double3x3b/bn/sc"
  type: "Scale"
  param {
    lr_mult: 1
    decay_mult: 1
  }
  param {
    lr_mult: 1
    decay_mult: 1
  }
  scale_param {
    bias_term: true
  }
}
layer {
  bottom: "inception_4b/double3x3b/bn/sc"
  top: "inception_4b/double3x3b/bn/sc"
  name: "inception_4b/double3x3b/bn/sc/relu"
  type: "ReLU"
}
layer {
  bottom: "inception_4a/output"
  top: "inception_4b/pool"
  name: "inception_4b/pool"
  type: "Pooling"
  pooling_param {
    pool: AVE
    kernel_size: 3
    stride: 1
    pad: 1
  }
}
layer {
  bottom: "inception_4b/pool"
  top: "inception_4b/pool_proj"
  name: "inception_4b/pool_proj"
  type: "Convolution"
  param {
    lr_mult: 1
    decay_mult: 1
  }
  convolution_param {
    num_output: 128
    pad: 0
    kernel_size: 1
    stride: 1
    weight_filler {
      type: "xavier"
    }
    bias_term: false
  }
}
layer {
  bottom: "inception_4b/pool_proj"
  name: "inception_4b/pool_proj/bn"
  top: "inception_4b/pool_proj/bn"
  type: "BatchNorm"
  param {
    lr_mult: 1
    decay_mult: 1
  }
  param {
    lr_mult: 1
    decay_mult: 1
  }
  param {
    lr_mult: 1
    decay_mult: 1
  }
}
layer {
  bottom: "inception_4b/pool_proj/bn"
  top: "inception_4b/pool_proj/bn/sc"
  name: "inception_4b/pool_proj/bn/sc"
  type: "Scale"
  param {
    lr_mult: 1
    decay_mult: 1
  }
  param {
    lr_mult: 1
    decay_mult: 1
  }
  scale_param {
    bias_term: true
  }
}
layer {
  bottom: "inception_4b/pool_proj/bn/sc"
  top: "inception_4b/pool_proj/bn/sc"
  name: "inception_4b/pool_proj/bn/sc/relu"
  type: "ReLU"
}
layer {
  bottom: "inception_4b/1x1/bn/sc"
  bottom: "inception_4b/3x3/bn/sc"
  bottom: "inception_4b/double3x3b/bn/sc"
  bottom: "inception_4b/pool_proj/bn/sc"
  top: "inception_4b/output"
  name: "inception_4b/output"
  type: "Concat"
}
layer {
  bottom: "inception_4b/output"
  top: "inception_4c/1x1"
  name: "inception_4c/1x1"
  type: "Convolution"
  param {
    lr_mult: 1
    decay_mult: 1
  }
  convolution_param {
    num_output: 160
    pad: 0
    kernel_size: 1
    stride: 1
    weight_filler {
      type: "xavier"
    }
    bias_term: false
  }
}
layer {
  bottom: "inception_4c/1x1"
  name: "inception_4c/1x1/bn"
  top: "inception_4c/1x1/bn"
  type: "BatchNorm"
  param {
    lr_mult: 1
    decay_mult: 1
  }
  param {
    lr_mult: 1
    decay_mult: 1
  }
  param {
    lr_mult: 1
    decay_mult: 1
  }
}
layer {
  bottom: "inception_4c/1x1/bn"
  top: "inception_4c/1x1/bn/sc"
  name: "inception_4c/1x1/bn/sc"
  type: "Scale"
  param {
    lr_mult: 1
    decay_mult: 1
  }
  param {
    lr_mult: 1
    decay_mult: 1
  }
  scale_param {
    bias_term: true
  }
}
layer {
  bottom: "inception_4c/1x1/bn/sc"
  top: "inception_4c/1x1/bn/sc"
  name: "inception_4c/1x1/bn/sc/relu"
  type: "ReLU"
}
layer {
  bottom: "inception_4b/output"
  top: "inception_4c/3x3_reduce"
  name: "inception_4c/3x3_reduce"
  type: "Convolution"
  param {
    lr_mult: 1
    decay_mult: 1
  }
  convolution_param {
    num_output: 128
    pad: 0
    kernel_size: 1
    stride: 1
    weight_filler {
      type: "xavier"
    }
    bias_term: false
  }
}
layer {
  bottom: "inception_4c/3x3_reduce"
  name: "inception_4c/3x3_reduce/bn"
  top: "inception_4c/3x3_reduce/bn"
  type: "BatchNorm"
  param {
    lr_mult: 1
    decay_mult: 1
  }
  param {
    lr_mult: 1
    decay_mult: 1
  }
  param {
    lr_mult: 1
    decay_mult: 1
  }
}
layer {
  bottom: "inception_4c/3x3_reduce/bn"
  top: "inception_4c/3x3_reduce/bn/sc"
  name: "inception_4c/3x3_reduce/bn/sc"
  type: "Scale"
  param {
    lr_mult: 1
    decay_mult: 1
  }
  param {
    lr_mult: 1
    decay_mult: 1
  }
  scale_param {
    bias_term: true
  }
}
layer {
  bottom: "inception_4c/3x3_reduce/bn/sc"
  top: "inception_4c/3x3_reduce/bn/sc"
  name: "inception_4c/3x3_reduce/bn/sc/relu"
  type: "ReLU"
}
layer {
  bottom: "inception_4c/3x3_reduce/bn/sc"
  top: "inception_4c/3x3"
  name: "inception_4c/3x3"
  type: "Convolution"
  param {
    lr_mult: 1
    decay_mult: 1
  }
  convolution_param {
    num_output: 160
    pad: 1
    kernel_size: 3
    stride: 1
    weight_filler {
      type: "xavier"
    }
    bias_term: false
  }
}
layer {
  bottom: "inception_4c/3x3"
  name: "inception_4c/3x3/bn"
  top: "inception_4c/3x3/bn"
  type: "BatchNorm"
  param {
    lr_mult: 1
    decay_mult: 1
  }
  param {
    lr_mult: 1
    decay_mult: 1
  }
  param {
    lr_mult: 1
    decay_mult: 1
  }
}
layer {
  bottom: "inception_4c/3x3/bn"
  top: "inception_4c/3x3/bn/sc"
  name: "inception_4c/3x3/bn/sc"
  type: "Scale"
  param {
    lr_mult: 1
    decay_mult: 1
  }
  param {
    lr_mult: 1
    decay_mult: 1
  }
  scale_param {
    bias_term: true
  }
}
layer {
  bottom: "inception_4c/3x3/bn/sc"
  top: "inception_4c/3x3/bn/sc"
  name: "inception_4c/3x3/bn/sc/relu"
  type: "ReLU"
}
layer {
  bottom: "inception_4b/output"
  top: "inception_4c/double3x3_reduce"
  name: "inception_4c/double3x3_reduce"
  type: "Convolution"
  param {
    lr_mult: 1
    decay_mult: 1
  }
  convolution_param {
    num_output: 128
    pad: 0
    kernel_size: 1
    stride: 1
    weight_filler {
      type: "xavier"
    }
    bias_term: false
  }
}
layer {
  bottom: "inception_4c/double3x3_reduce"
  name: "inception_4c/double3x3_reduce/bn"
  top: "inception_4c/double3x3_reduce/bn"
  type: "BatchNorm"
  param {
    lr_mult: 1
    decay_mult: 1
  }
  param {
    lr_mult: 1
    decay_mult: 1
  }
  param {
    lr_mult: 1
    decay_mult: 1
  }
}
layer {
  bottom: "inception_4c/double3x3_reduce/bn"
  top: "inception_4c/double3x3_reduce/bn/sc"
  name: "inception_4c/double3x3_reduce/bn/sc"
  type: "Scale"
  param {
    lr_mult: 1
    decay_mult: 1
  }
  param {
    lr_mult: 1
    decay_mult: 1
  }
  scale_param {
    bias_term: true
  }
}
layer {
  bottom: "inception_4c/double3x3_reduce/bn/sc"
  top: "inception_4c/double3x3_reduce/bn/sc"
  name: "inception_4c/double3x3_reduce/bn/sc/relu"
  type: "ReLU"
}
layer {
  bottom: "inception_4c/double3x3_reduce/bn/sc"
  top: "inception_4c/double3x3a"
  name: "inception_4c/double3x3a"
  type: "Convolution"
  param {
    lr_mult: 1
    decay_mult: 1
  }
  convolution_param {
    num_output: 160
    pad: 1
    kernel_size: 3
    stride: 1
    weight_filler {
      type: "xavier"
    }
    bias_term: false
  }
}
layer {
  bottom: "inception_4c/double3x3a"
  name: "inception_4c/double3x3a/bn"
  top: "inception_4c/double3x3a/bn"
  type: "BatchNorm"
  param {
    lr_mult: 1
    decay_mult: 1
  }
  param {
    lr_mult: 1
    decay_mult: 1
  }
  param {
    lr_mult: 1
    decay_mult: 1
  }
}
layer {
  bottom: "inception_4c/double3x3a/bn"
  top: "inception_4c/double3x3a/bn/sc"
  name: "inception_4c/double3x3a/bn/sc"
  type: "Scale"
  param {
    lr_mult: 1
    decay_mult: 1
  }
  param {
    lr_mult: 1
    decay_mult: 1
  }
  scale_param {
    bias_term: true
  }
}
layer {
  bottom: "inception_4c/double3x3a/bn/sc"
  top: "inception_4c/double3x3a/bn/sc"
  name: "inception_4c/double3x3a/bn/sc/relu"
  type: "ReLU"
}
layer {
  bottom: "inception_4c/double3x3a/bn/sc"
  top: "inception_4c/double3x3b"
  name: "inception_4c/double3x3b"
  type: "Convolution"
  param {
    lr_mult: 1
    decay_mult: 1
  }
  convolution_param {
    num_output: 160
    pad: 1
    kernel_size: 3
    stride: 1
    weight_filler {
      type: "xavier"
    }
    bias_term: false
  }
}
layer {
  bottom: "inception_4c/double3x3b"
  name: "inception_4c/double3x3b/bn"
  top: "inception_4c/double3x3b/bn"
  type: "BatchNorm"
  param {
    lr_mult: 1
    decay_mult: 1
  }
  param {
    lr_mult: 1
    decay_mult: 1
  }
  param {
    lr_mult: 1
    decay_mult: 1
  }
}
layer {
  bottom: "inception_4c/double3x3b/bn"
  top: "inception_4c/double3x3b/bn/sc"
  name: "inception_4c/double3x3b/bn/sc"
  type: "Scale"
  param {
    lr_mult: 1
    decay_mult: 1
  }
  param {
    lr_mult: 1
    decay_mult: 1
  }
  scale_param {
    bias_term: true
  }
}
layer {
  bottom: "inception_4c/double3x3b/bn/sc"
  top: "inception_4c/double3x3b/bn/sc"
  name: "inception_4c/double3x3b/bn/sc/relu"
  type: "ReLU"
}
layer {
  bottom: "inception_4b/output"
  top: "inception_4c/pool"
  name: "inception_4c/pool"
  type: "Pooling"
  pooling_param {
    pool: AVE
    kernel_size: 3
    stride: 1
    pad: 1
  }
}
layer {
  bottom: "inception_4c/pool"
  top: "inception_4c/pool_proj"
  name: "inception_4c/pool_proj"
  type: "Convolution"
  param {
    lr_mult: 1
    decay_mult: 1
  }
  convolution_param {
    num_output: 96
    pad: 0
    kernel_size: 1
    stride: 1
    weight_filler {
      type: "xavier"
    }
    bias_term: false
  }
}
layer {
  bottom: "inception_4c/pool_proj"
  name: "inception_4c/pool_proj/bn"
  top: "inception_4c/pool_proj/bn"
  type: "BatchNorm"
  param {
    lr_mult: 1
    decay_mult: 1
  }
  param {
    lr_mult: 1
    decay_mult: 1
  }
  param {
    lr_mult: 1
    decay_mult: 1
  }
}
layer {
  bottom: "inception_4c/pool_proj/bn"
  top: "inception_4c/pool_proj/bn/sc"
  name: "inception_4c/pool_proj/bn/sc"
  type: "Scale"
  param {
    lr_mult: 1
    decay_mult: 1
  }
  param {
    lr_mult: 1
    decay_mult: 1
  }
  scale_param {
    bias_term: true
  }
}
layer {
  bottom: "inception_4c/pool_proj/bn/sc"
  top: "inception_4c/pool_proj/bn/sc"
  name: "inception_4c/pool_proj/bn/sc/relu"
  type: "ReLU"
}
layer {
  bottom: "inception_4c/1x1/bn/sc"
  bottom: "inception_4c/3x3/bn/sc"
  bottom: "inception_4c/double3x3b/bn/sc"
  bottom: "inception_4c/pool_proj/bn/sc"
  top: "inception_4c/output"
  name: "inception_4c/output"
  type: "Concat"
}
layer {
  bottom: "inception_4c/output"
  top: "inception_4d/1x1"
  name: "inception_4d/1x1"
  type: "Convolution"
  param {
    lr_mult: 1
    decay_mult: 1
  }
  convolution_param {
    num_output: 96
    pad: 0
    kernel_size: 1
    stride: 1
    weight_filler {
      type: "xavier"
    }
    bias_term: false
  }
}
layer {
  bottom: "inception_4d/1x1"
  name: "inception_4d/1x1/bn"
  top: "inception_4d/1x1/bn"
  type: "BatchNorm"
  param {
    lr_mult: 1
    decay_mult: 1
  }
  param {
    lr_mult: 1
    decay_mult: 1
  }
  param {
    lr_mult: 1
    decay_mult: 1
  }
}
layer {
  bottom: "inception_4d/1x1/bn"
  top: "inception_4d/1x1/bn/sc"
  name: "inception_4d/1x1/bn/sc"
  type: "Scale"
  param {
    lr_mult: 1
    decay_mult: 1
  }
  param {
    lr_mult: 1
    decay_mult: 1
  }
  scale_param {
    bias_term: true
  }
}
layer {
  bottom: "inception_4d/1x1/bn/sc"
  top: "inception_4d/1x1/bn/sc"
  name: "inception_4d/1x1/bn/sc/relu"
  type: "ReLU"
}
layer {
  bottom: "inception_4c/output"
  top: "inception_4d/3x3_reduce"
  name: "inception_4d/3x3_reduce"
  type: "Convolution"
  param {
    lr_mult: 1
    decay_mult: 1
  }
  convolution_param {
    num_output: 128
    pad: 0
    kernel_size: 1
    stride: 1
    weight_filler {
      type: "xavier"
    }
    bias_term: false
  }
}
layer {
  bottom: "inception_4d/3x3_reduce"
  name: "inception_4d/3x3_reduce/bn"
  top: "inception_4d/3x3_reduce/bn"
  type: "BatchNorm"
  param {
    lr_mult: 1
    decay_mult: 1
  }
  param {
    lr_mult: 1
    decay_mult: 1
  }
  param {
    lr_mult: 1
    decay_mult: 1
  }
}
layer {
  bottom: "inception_4d/3x3_reduce/bn"
  top: "inception_4d/3x3_reduce/bn/sc"
  name: "inception_4d/3x3_reduce/bn/sc"
  type: "Scale"
  param {
    lr_mult: 1
    decay_mult: 1
  }
  param {
    lr_mult: 1
    decay_mult: 1
  }
  scale_param {
    bias_term: true
  }
}
layer {
  bottom: "inception_4d/3x3_reduce/bn/sc"
  top: "inception_4d/3x3_reduce/bn/sc"
  name: "inception_4d/3x3_reduce/bn/sc/relu"
  type: "ReLU"
}
layer {
  bottom: "inception_4d/3x3_reduce/bn/sc"
  top: "inception_4d/3x3"
  name: "inception_4d/3x3"
  type: "Convolution"
  param {
    lr_mult: 1
    decay_mult: 1
  }
  convolution_param {
    num_output: 192
    pad: 1
    kernel_size: 3
    stride: 1
    weight_filler {
      type: "xavier"
    }
    bias_term: false
  }
}
layer {
  bottom: "inception_4d/3x3"
  name: "inception_4d/3x3/bn"
  top: "inception_4d/3x3/bn"
  type: "BatchNorm"
  param {
    lr_mult: 1
    decay_mult: 1
  }
  param {
    lr_mult: 1
    decay_mult: 1
  }
  param {
    lr_mult: 1
    decay_mult: 1
  }
}
layer {
  bottom: "inception_4d/3x3/bn"
  top: "inception_4d/3x3/bn/sc"
  name: "inception_4d/3x3/bn/sc"
  type: "Scale"
  param {
    lr_mult: 1
    decay_mult: 1
  }
  param {
    lr_mult: 1
    decay_mult: 1
  }
  scale_param {
    bias_term: true
  }
}
layer {
  bottom: "inception_4d/3x3/bn/sc"
  top: "inception_4d/3x3/bn/sc"
  name: "inception_4d/3x3/bn/sc/relu"
  type: "ReLU"
}
layer {
  bottom: "inception_4c/output"
  top: "inception_4d/double3x3_reduce"
  name: "inception_4d/double3x3_reduce"
  type: "Convolution"
  param {
    lr_mult: 1
    decay_mult: 1
  }
  convolution_param {
    num_output: 160
    pad: 0
    kernel_size: 1
    stride: 1
    weight_filler {
      type: "xavier"
    }
    bias_term: false
  }
}
layer {
  bottom: "inception_4d/double3x3_reduce"
  name: "inception_4d/double3x3_reduce/bn"
  top: "inception_4d/double3x3_reduce/bn"
  type: "BatchNorm"
  param {
    lr_mult: 1
    decay_mult: 1
  }
  param {
    lr_mult: 1
    decay_mult: 1
  }
  param {
    lr_mult: 1
    decay_mult: 1
  }
}
layer {
  bottom: "inception_4d/double3x3_reduce/bn"
  top: "inception_4d/double3x3_reduce/bn/sc"
  name: "inception_4d/double3x3_reduce/bn/sc"
  type: "Scale"
  param {
    lr_mult: 1
    decay_mult: 1
  }
  param {
    lr_mult: 1
    decay_mult: 1
  }
  scale_param {
    bias_term: true
  }
}
layer {
  bottom: "inception_4d/double3x3_reduce/bn/sc"
  top: "inception_4d/double3x3_reduce/bn/sc"
  name: "inception_4d/double3x3_reduce/bn/sc/relu"
  type: "ReLU"
}
layer {
  bottom: "inception_4d/double3x3_reduce/bn/sc"
  top: "inception_4d/double3x3a"
  name: "inception_4d/double3x3a"
  type: "Convolution"
  param {
    lr_mult: 1
    decay_mult: 1
  }
  convolution_param {
    num_output: 192
    pad: 1
    kernel_size: 3
    stride: 1
    weight_filler {
      type: "xavier"
    }
    bias_term: false
  }
}
layer {
  bottom: "inception_4d/double3x3a"
  name: "inception_4d/double3x3a/bn"
  top: "inception_4d/double3x3a/bn"
  type: "BatchNorm"
  param {
    lr_mult: 1
    decay_mult: 1
  }
  param {
    lr_mult: 1
    decay_mult: 1
  }
  param {
    lr_mult: 1
    decay_mult: 1
  }
}
layer {
  bottom: "inception_4d/double3x3a/bn"
  top: "inception_4d/double3x3a/bn/sc"
  name: "inception_4d/double3x3a/bn/sc"
  type: "Scale"
  param {
    lr_mult: 1
    decay_mult: 1
  }
  param {
    lr_mult: 1
    decay_mult: 1
  }
  scale_param {
    bias_term: true
  }
}
layer {
  bottom: "inception_4d/double3x3a/bn/sc"
  top: "inception_4d/double3x3a/bn/sc"
  name: "inception_4d/double3x3a/bn/sc/relu"
  type: "ReLU"
}
layer {
  bottom: "inception_4d/double3x3a/bn/sc"
  top: "inception_4d/double3x3b"
  name: "inception_4d/double3x3b"
  type: "Convolution"
  param {
    lr_mult: 1
    decay_mult: 1
  }
  convolution_param {
    num_output: 192
    pad: 1
    kernel_size: 3
    stride: 1
    weight_filler {
      type: "xavier"
    }
    bias_term: false
  }
}
layer {
  bottom: "inception_4d/double3x3b"
  name: "inception_4d/double3x3b/bn"
  top: "inception_4d/double3x3b/bn"
  type: "BatchNorm"
  param {
    lr_mult: 1
    decay_mult: 1
  }
  param {
    lr_mult: 1
    decay_mult: 1
  }
  param {
    lr_mult: 1
    decay_mult: 1
  }
}
layer {
  bottom: "inception_4d/double3x3b/bn"
  top: "inception_4d/double3x3b/bn/sc"
  name: "inception_4d/double3x3b/bn/sc"
  type: "Scale"
  param {
    lr_mult: 1
    decay_mult: 1
  }
  param {
    lr_mult: 1
    decay_mult: 1
  }
  scale_param {
    bias_term: true
  }
}
layer {
  bottom: "inception_4d/double3x3b/bn/sc"
  top: "inception_4d/double3x3b/bn/sc"
  name: "inception_4d/double3x3b/bn/sc/relu"
  type: "ReLU"
}
layer {
  bottom: "inception_4c/output"
  top: "inception_4d/pool"
  name: "inception_4d/pool"
  type: "Pooling"
  pooling_param {
    pool: AVE
    kernel_size: 3
    stride: 1
    pad: 1
  }
}
layer {
  bottom: "inception_4d/pool"
  top: "inception_4d/pool_proj"
  name: "inception_4d/pool_proj"
  type: "Convolution"
  param {
    lr_mult: 1
    decay_mult: 1
  }
  convolution_param {
    num_output: 96
    pad: 0
    kernel_size: 1
    stride: 1
    weight_filler {
      type: "xavier"
    }
    bias_term: false
  }
}
layer {
  bottom: "inception_4d/pool_proj"
  name: "inception_4d/pool_proj/bn"
  top: "inception_4d/pool_proj/bn"
  type: "BatchNorm"
  param {
    lr_mult: 1
    decay_mult: 1
  }
  param {
    lr_mult: 1
    decay_mult: 1
  }
  param {
    lr_mult: 1
    decay_mult: 1
  }
}
layer {
  bottom: "inception_4d/pool_proj/bn"
  top: "inception_4d/pool_proj/bn/sc"
  name: "inception_4d/pool_proj/bn/sc"
  type: "Scale"
  param {
    lr_mult: 1
    decay_mult: 1
  }
  param {
    lr_mult: 1
    decay_mult: 1
  }
  scale_param {
    bias_term: true
  }
}
layer {
  bottom: "inception_4d/pool_proj/bn/sc"
  top: "inception_4d/pool_proj/bn/sc"
  name: "inception_4d/pool_proj/bn/sc/relu"
  type: "ReLU"
}
layer {
  bottom: "inception_4d/1x1/bn/sc"
  bottom: "inception_4d/3x3/bn/sc"
  bottom: "inception_4d/double3x3b/bn/sc"
  bottom: "inception_4d/pool_proj/bn/sc"
  top: "inception_4d/output"
  name: "inception_4d/output"
  type: "Concat"
}
layer {
  bottom: "inception_4d/output"
  top: "inception_4e/3x3_reduce"
  name: "inception_4e/3x3_reduce"
  type: "Convolution"
  param {
    lr_mult: 1
    decay_mult: 1
  }
  convolution_param {
    num_output: 128
    pad: 0
    kernel_size: 1
    stride: 1
    weight_filler {
      type: "xavier"
    }
    bias_term: false
  }
}
layer {
  bottom: "inception_4e/3x3_reduce"
  name: "inception_4e/3x3_reduce/bn"
  top: "inception_4e/3x3_reduce/bn"
  type: "BatchNorm"
  param {
    lr_mult: 1
    decay_mult: 1
  }
  param {
    lr_mult: 1
    decay_mult: 1
  }
  param {
    lr_mult: 1
    decay_mult: 1
  }
}
layer {
  bottom: "inception_4e/3x3_reduce/bn"
  top: "inception_4e/3x3_reduce/bn/sc"
  name: "inception_4e/3x3_reduce/bn/sc"
  type: "Scale"
  param {
    lr_mult: 1
    decay_mult: 1
  }
  param {
    lr_mult: 1
    decay_mult: 1
  }
  scale_param {
    bias_term: true
  }
}
layer {
  bottom: "inception_4e/3x3_reduce/bn/sc"
  top: "inception_4e/3x3_reduce/bn/sc"
  name: "inception_4e/3x3_reduce/bn/sc/relu"
  type: "ReLU"
}
layer {
  bottom: "inception_4e/3x3_reduce/bn/sc"
  top: "inception_4e/3x3"
  name: "inception_4e/3x3"
  type: "Convolution"
  param {
    lr_mult: 1
    decay_mult: 1
  }
  convolution_param {
    num_output: 192
    pad: 1
    kernel_size: 3
    stride: 2
    weight_filler {
      type: "xavier"
    }
    bias_term: false
  }
}
layer {
  bottom: "inception_4e/3x3"
  name: "inception_4e/3x3/bn"
  top: "inception_4e/3x3/bn"
  type: "BatchNorm"
  param {
    lr_mult: 1
    decay_mult: 1
  }
  param {
    lr_mult: 1
    decay_mult: 1
  }
  param {
    lr_mult: 1
    decay_mult: 1
  }
}
layer {
  bottom: "inception_4e/3x3/bn"
  top: "inception_4e/3x3/bn/sc"
  name: "inception_4e/3x3/bn/sc"
  type: "Scale"
  param {
    lr_mult: 1
    decay_mult: 1
  }
  param {
    lr_mult: 1
    decay_mult: 1
  }
  scale_param {
    bias_term: true
  }
}
layer {
  bottom: "inception_4e/3x3/bn/sc"
  top: "inception_4e/3x3/bn/sc"
  name: "inception_4e/3x3/bn/sc/relu"
  type: "ReLU"
}
layer {
  bottom: "inception_4d/output"
  top: "inception_4e/double3x3_reduce"
  name: "inception_4e/double3x3_reduce"
  type: "Convolution"
  param {
    lr_mult: 1
    decay_mult: 1
  }
  convolution_param {
    num_output: 192
    pad: 0
    kernel_size: 1
    stride: 1
    weight_filler {
      type: "xavier"
    }
    bias_term: false
  }
}
layer {
  bottom: "inception_4e/double3x3_reduce"
  name: "inception_4e/double3x3_reduce/bn"
  top: "inception_4e/double3x3_reduce/bn"
  type: "BatchNorm"
  param {
    lr_mult: 1
    decay_mult: 1
  }
  param {
    lr_mult: 1
    decay_mult: 1
  }
  param {
    lr_mult: 1
    decay_mult: 1
  }
}
layer {
  bottom: "inception_4e/double3x3_reduce/bn"
  top: "inception_4e/double3x3_reduce/bn/sc"
  name: "inception_4e/double3x3_reduce/bn/sc"
  type: "Scale"
  param {
    lr_mult: 1
    decay_mult: 1
  }
  param {
    lr_mult: 1
    decay_mult: 1
  }
  scale_param {
    bias_term: true
  }
}
layer {
  bottom: "inception_4e/double3x3_reduce/bn/sc"
  top: "inception_4e/double3x3_reduce/bn/sc"
  name: "inception_4e/double3x3_reduce/bn/sc/relu"
  type: "ReLU"
}
layer {
  bottom: "inception_4e/double3x3_reduce/bn/sc"
  top: "inception_4e/double3x3a"
  name: "inception_4e/double3x3a"
  type: "Convolution"
  param {
    lr_mult: 1
    decay_mult: 1
  }
  convolution_param {
    num_output: 256
    pad: 1
    kernel_size: 3
    stride: 1
    weight_filler {
      type: "xavier"
    }
    bias_term: false
  }
}
layer {
  bottom: "inception_4e/double3x3a"
  name: "inception_4e/double3x3a/bn"
  top: "inception_4e/double3x3a/bn"
  type: "BatchNorm"
  param {
    lr_mult: 1
    decay_mult: 1
  }
  param {
    lr_mult: 1
    decay_mult: 1
  }
  param {
    lr_mult: 1
    decay_mult: 1
  }
}
layer {
  bottom: "inception_4e/double3x3a/bn"
  top: "inception_4e/double3x3a/bn/sc"
  name: "inception_4e/double3x3a/bn/sc"
  type: "Scale"
  param {
    lr_mult: 1
    decay_mult: 1
  }
  param {
    lr_mult: 1
    decay_mult: 1
  }
  scale_param {
    bias_term: true
  }
}
layer {
  bottom: "inception_4e/double3x3a/bn/sc"
  top: "inception_4e/double3x3a/bn/sc"
  name: "inception_4e/double3x3a/bn/sc/relu"
  type: "ReLU"
}
layer {
  bottom: "inception_4e/double3x3a/bn/sc"
  top: "inception_4e/double3x3b"
  name: "inception_4e/double3x3b"
  type: "Convolution"
  param {
    lr_mult: 1
    decay_mult: 1
  }
  convolution_param {
    num_output: 256
    pad: 1
    kernel_size: 3
    stride: 2
    weight_filler {
      type: "xavier"
    }
    bias_term: false
  }
}
layer {
  bottom: "inception_4e/double3x3b"
  name: "inception_4e/double3x3b/bn"
  top: "inception_4e/double3x3b/bn"
  type: "BatchNorm"
  param {
    lr_mult: 1
    decay_mult: 1
  }
  param {
    lr_mult: 1
    decay_mult: 1
  }
  param {
    lr_mult: 1
    decay_mult: 1
  }
}
layer {
  bottom: "inception_4e/double3x3b/bn"
  top: "inception_4e/double3x3b/bn/sc"
  name: "inception_4e/double3x3b/bn/sc"
  type: "Scale"
  param {
    lr_mult: 1
    decay_mult: 1
  }
  param {
    lr_mult: 1
    decay_mult: 1
  }
  scale_param {
    bias_term: true
  }
}
layer {
  bottom: "inception_4e/double3x3b/bn/sc"
  top: "inception_4e/double3x3b/bn/sc"
  name: "inception_4e/double3x3b/bn/sc/relu"
  type: "ReLU"
}
layer {
  bottom: "inception_4d/output"
  top: "inception_4e/pool"
  name: "inception_4e/pool"
  type: "Pooling"
  pooling_param {
    pool: MAX
    kernel_size: 3
    stride: 2
  }
}
layer {
  bottom: "inception_4e/3x3/bn/sc"
  bottom: "inception_4e/double3x3b/bn/sc"
  bottom: "inception_4e/pool"
  top: "inception_4e/output"
  name: "inception_4e/output"
  type: "Concat"
}
layer {
  type: "Slice"
  name: "output_slicer"
  bottom: "inception_4e/output"
  top: "inception_4e/output_badExposure"
  top: "inception_4e/output_badWhiteBalance"
  top: "inception_4e/output_badSaturation"
  top: "inception_4e/output_noise"
  top: "inception_4e/output_haze"
  top: "inception_4e/output_undesiredBlur"
  top: "inception_4e/output_badComposition"
  include {
    phase: TRAIN
  }
  slice_param {
    axis: 0
    slice_point: 4
    slice_point: 8
    slice_point: 12
    slice_point: 16
    slice_point: 20
    slice_point: 24
  }
}

#----------------------badExposure branch layers-----------------------
#----------------------badExposure branch layers-----------------------
#----------------------badExposure branch layers-----------------------
#----------------------badExposure branch layers-----------------------
#----------------------badExposure branch layers-----------------------

layer {
  bottom: "inception_4e/output_badExposure"
  top: "inception_5a/1x1_badExposure"
  name: "inception_5a/1x1_badExposure"
  type: "Convolution"
  include {
    phase: TRAIN
  }
  param {
    lr_mult: 1
    decay_mult: 1
  }
  convolution_param {
    num_output: 352
    pad: 0
    kernel_size: 1
    stride: 1
    weight_filler {
      type: "xavier"
    }
    bias_term: false
  }
}
layer {
  bottom: "inception_4e/output"
  top: "inception_5a/1x1_badExposure"
  name: "inception_5a/1x1_badExposure"
  type: "Convolution"
  include {
    phase: TEST
  }
  param {
    lr_mult: 1
    decay_mult: 1
  }
  convolution_param {
    num_output: 352
    pad: 0
    kernel_size: 1
    stride: 1
    weight_filler {
      type: "xavier"
    }
    bias_term: false
  }
}
layer {
  bottom: "inception_5a/1x1_badExposure"
  name: "inception_5a/1x1/bn_badExposure"
  top: "inception_5a/1x1/bn_badExposure"
  type: "BatchNorm"
  param {
    lr_mult: 1
    decay_mult: 1
  }
  param {
    lr_mult: 1
    decay_mult: 1
  }
  param {
    lr_mult: 1
    decay_mult: 1
  }
}
layer {
  bottom: "inception_5a/1x1/bn_badExposure"
  top: "inception_5a/1x1/bn/sc_badExposure"
  name: "inception_5a/1x1/bn/sc_badExposure"
  type: "Scale"
  param {
    lr_mult: 1
    decay_mult: 1
  }
  param {
    lr_mult: 1
    decay_mult: 1
  }
  scale_param {
    bias_term: true
  }
}
layer {
  bottom: "inception_5a/1x1/bn/sc_badExposure"
  top: "inception_5a/1x1/bn/sc_badExposure"
  name: "inception_5a/1x1/bn/sc/relu_badExposure"
  type: "ReLU"
}
layer {
  bottom: "inception_4e/output_badExposure"
  top: "inception_5a/3x3_reduce_badExposure"
  name: "inception_5a/3x3_reduce_badExposure"
  type: "Convolution"
  include {
    phase: TRAIN
  }
  param {
    lr_mult: 1
    decay_mult: 1
  }
  convolution_param {
    num_output: 192
    pad: 0
    kernel_size: 1
    stride: 1
    weight_filler {
      type: "xavier"
    }
    bias_term: false
  }
}
layer {
  bottom: "inception_4e/output"
  top: "inception_5a/3x3_reduce_badExposure"
  name: "inception_5a/3x3_reduce_badExposure"
  type: "Convolution"
  include {
    phase: TEST
  }
  param {
    lr_mult: 1
    decay_mult: 1
  }
  convolution_param {
    num_output: 192
    pad: 0
    kernel_size: 1
    stride: 1
    weight_filler {
      type: "xavier"
    }
    bias_term: false
  }
}
layer {
  bottom: "inception_5a/3x3_reduce_badExposure"
  name: "inception_5a/3x3_reduce/bn_badExposure"
  top: "inception_5a/3x3_reduce/bn_badExposure"
  type: "BatchNorm"
  param {
    lr_mult: 1
    decay_mult: 1
  }
  param {
    lr_mult: 1
    decay_mult: 1
  }
  param {
    lr_mult: 1
    decay_mult: 1
  }
}
layer {
  bottom: "inception_5a/3x3_reduce/bn_badExposure"
  top: "inception_5a/3x3_reduce/bn/sc_badExposure"
  name: "inception_5a/3x3_reduce/bn/sc_badExposure"
  type: "Scale"
  param {
    lr_mult: 1
    decay_mult: 1
  }
  param {
    lr_mult: 1
    decay_mult: 1
  }
  scale_param {
    bias_term: true
  }
}
layer {
  bottom: "inception_5a/3x3_reduce/bn/sc_badExposure"
  top: "inception_5a/3x3_reduce/bn/sc_badExposure"
  name: "inception_5a/3x3_reduce/bn/sc/relu_badExposure"
  type: "ReLU"
}
layer {
  bottom: "inception_5a/3x3_reduce/bn/sc_badExposure"
  top: "inception_5a/3x3_badExposure"
  name: "inception_5a/3x3_badExposure"
  type: "Convolution"
  param {
    lr_mult: 1
    decay_mult: 1
  }
  convolution_param {
    num_output: 320
    pad: 1
    kernel_size: 3
    stride: 1
    weight_filler {
      type: "xavier"
    }
    bias_term: false
  }
}
layer {
  bottom: "inception_5a/3x3_badExposure"
  name: "inception_5a/3x3/bn_badExposure"
  top: "inception_5a/3x3/bn_badExposure"
  type: "BatchNorm"
  param {
    lr_mult: 1
    decay_mult: 1
  }
  param {
    lr_mult: 1
    decay_mult: 1
  }
  param {
    lr_mult: 1
    decay_mult: 1
  }
}
layer {
  bottom: "inception_5a/3x3/bn_badExposure"
  top: "inception_5a/3x3/bn/sc_badExposure"
  name: "inception_5a/3x3/bn/sc_badExposure"
  type: "Scale"
  param {
    lr_mult: 1
    decay_mult: 1
  }
  param {
    lr_mult: 1
    decay_mult: 1
  }
  scale_param {
    bias_term: true
  }
}
layer {
  bottom: "inception_5a/3x3/bn/sc_badExposure"
  top: "inception_5a/3x3/bn/sc_badExposure"
  name: "inception_5a/3x3/bn/sc/relu_badExposure"
  type: "ReLU"
}
layer {
  bottom: "inception_4e/output_badExposure"
  top: "inception_5a/double3x3_reduce_badExposure"
  name: "inception_5a/double3x3_reduce_badExposure"
  type: "Convolution"
  include {
    phase: TRAIN
  }
  param {
    lr_mult: 1
    decay_mult: 1
  }
  convolution_param {
    num_output: 160
    pad: 0
    kernel_size: 1
    stride: 1
    weight_filler {
      type: "xavier"
    }
    bias_term: false
  }
}
layer {
  bottom: "inception_4e/output"
  top: "inception_5a/double3x3_reduce_badExposure"
  name: "inception_5a/double3x3_reduce_badExposure"
  type: "Convolution"
  include {
    phase: TEST
  }
  param {
    lr_mult: 1
    decay_mult: 1
  }
  convolution_param {
    num_output: 160
    pad: 0
    kernel_size: 1
    stride: 1
    weight_filler {
      type: "xavier"
    }
    bias_term: false
  }
}
layer {
  bottom: "inception_5a/double3x3_reduce_badExposure"
  name: "inception_5a/double3x3_reduce/bn_badExposure"
  top: "inception_5a/double3x3_reduce/bn_badExposure"
  type: "BatchNorm"
  param {
    lr_mult: 1
    decay_mult: 1
  }
  param {
    lr_mult: 1
    decay_mult: 1
  }
  param {
    lr_mult: 1
    decay_mult: 1
  }
}
layer {
  bottom: "inception_5a/double3x3_reduce/bn_badExposure"
  top: "inception_5a/double3x3_reduce/bn/sc_badExposure"
  name: "inception_5a/double3x3_reduce/bn/sc_badExposure"
  type: "Scale"
  param {
    lr_mult: 1
    decay_mult: 1
  }
  param {
    lr_mult: 1
    decay_mult: 1
  }
  scale_param {
    bias_term: true
  }
}
layer {
  bottom: "inception_5a/double3x3_reduce/bn/sc_badExposure"
  top: "inception_5a/double3x3_reduce/bn/sc_badExposure"
  name: "inception_5a/double3x3_reduce/bn/sc/relu_badExposure"
  type: "ReLU"
}
layer {
  bottom: "inception_5a/double3x3_reduce/bn/sc_badExposure"
  top: "inception_5a/double3x3a_badExposure"
  name: "inception_5a/double3x3a_badExposure"
  type: "Convolution"
  param {
    lr_mult: 1
    decay_mult: 1
  }
  convolution_param {
    num_output: 224
    pad: 1
    kernel_size: 3
    stride: 1
    weight_filler {
      type: "xavier"
    }
    bias_term: false
  }
}
layer {
  bottom: "inception_5a/double3x3a_badExposure"
  name: "inception_5a/double3x3a/bn_badExposure"
  top: "inception_5a/double3x3a/bn_badExposure"
  type: "BatchNorm"
  param {
    lr_mult: 1
    decay_mult: 1
  }
  param {
    lr_mult: 1
    decay_mult: 1
  }
  param {
    lr_mult: 1
    decay_mult: 1
  }
}
layer {
  bottom: "inception_5a/double3x3a/bn_badExposure"
  top: "inception_5a/double3x3a/bn/sc_badExposure"
  name: "inception_5a/double3x3a/bn/sc_badExposure"
  type: "Scale"
  param {
    lr_mult: 1
    decay_mult: 1
  }
  param {
    lr_mult: 1
    decay_mult: 1
  }
  scale_param {
    bias_term: true
  }
}
layer {
  bottom: "inception_5a/double3x3a/bn/sc_badExposure"
  top: "inception_5a/double3x3a/bn/sc_badExposure"
  name: "inception_5a/double3x3a/bn/sc/relu_badExposure"
  type: "ReLU"
}
layer {
  bottom: "inception_5a/double3x3a/bn/sc_badExposure"
  top: "inception_5a/double3x3b_badExposure"
  name: "inception_5a/double3x3b_badExposure"
  type: "Convolution"
  param {
    lr_mult: 1
    decay_mult: 1
  }
  convolution_param {
    num_output: 224
    pad: 1
    kernel_size: 3
    stride: 1
    weight_filler {
      type: "xavier"
    }
    bias_term: false
  }
}
layer {
  bottom: "inception_5a/double3x3b_badExposure"
  name: "inception_5a/double3x3b/bn_badExposure"
  top: "inception_5a/double3x3b/bn_badExposure"
  type: "BatchNorm"
  param {
    lr_mult: 1
    decay_mult: 1
  }
  param {
    lr_mult: 1
    decay_mult: 1
  }
  param {
    lr_mult: 1
    decay_mult: 1
  }
}
layer {
  bottom: "inception_5a/double3x3b/bn_badExposure"
  top: "inception_5a/double3x3b/bn/sc_badExposure"
  name: "inception_5a/double3x3b/bn/sc_badExposure"
  type: "Scale"
  param {
    lr_mult: 1
    decay_mult: 1
  }
  param {
    lr_mult: 1
    decay_mult: 1
  }
  scale_param {
    bias_term: true
  }
}
layer {
  bottom: "inception_5a/double3x3b/bn/sc_badExposure"
  top: "inception_5a/double3x3b/bn/sc_badExposure"
  name: "inception_5a/double3x3b/bn/sc/relu_badExposure"
  type: "ReLU"
}
layer {
  bottom: "inception_4e/output_badExposure"
  top: "inception_5a/pool_badExposure"
  name: "inception_5a/pool_badExposure"
  type: "Pooling"
  include {
    phase: TRAIN
  }
  pooling_param {
    pool: AVE
    kernel_size: 3
    stride: 1
    pad: 1
  }
}
layer {
  bottom: "inception_4e/output"
  top: "inception_5a/pool_badExposure"
  name: "inception_5a/pool_badExposure"
  type: "Pooling"
  include {
    phase: TEST
  }
  pooling_param {
    pool: AVE
    kernel_size: 3
    stride: 1
    pad: 1
  }
}
layer {
  bottom: "inception_5a/pool_badExposure"
  top: "inception_5a/pool_proj_badExposure"
  name: "inception_5a/pool_proj_badExposure"
  type: "Convolution"
  param {
    lr_mult: 1
    decay_mult: 1
  }
  convolution_param {
    num_output: 128
    pad: 0
    kernel_size: 1
    stride: 1
    weight_filler {
      type: "xavier"
    }
    bias_term: false
  }
}
layer {
  bottom: "inception_5a/pool_proj_badExposure"
  name: "inception_5a/pool_proj/bn_badExposure"
  top: "inception_5a/pool_proj/bn_badExposure"
  type: "BatchNorm"
  param {
    lr_mult: 1
    decay_mult: 1
  }
  param {
    lr_mult: 1
    decay_mult: 1
  }
  param {
    lr_mult: 1
    decay_mult: 1
  }
}
layer {
  bottom: "inception_5a/pool_proj/bn_badExposure"
  top: "inception_5a/pool_proj/bn/sc_badExposure"
  name: "inception_5a/pool_proj/bn/sc_badExposure"
  type: "Scale"
  param {
    lr_mult: 1
    decay_mult: 1
  }
  param {
    lr_mult: 1
    decay_mult: 1
  }
  scale_param {
    bias_term: true
  }
}
layer {
  bottom: "inception_5a/pool_proj/bn/sc_badExposure"
  top: "inception_5a/pool_proj/bn/sc_badExposure"
  name: "inception_5a/pool_proj/bn/sc/relu_badExposure"
  type: "ReLU"
}
layer {
  bottom: "inception_5a/1x1/bn/sc_badExposure"
  bottom: "inception_5a/3x3/bn/sc_badExposure"
  bottom: "inception_5a/double3x3b/bn/sc_badExposure"
  bottom: "inception_5a/pool_proj/bn/sc_badExposure"
  top: "inception_5a/output_badExposure"
  name: "inception_5a/output_badExposure"
  type: "Concat"
}
layer {
  bottom: "inception_5a/output_badExposure"
  top: "inception_5b/1x1_badExposure"
  name: "inception_5b/1x1_badExposure"
  type: "Convolution"
  param {
    lr_mult: 1
    decay_mult: 1
  }
  convolution_param {
    num_output: 88
    pad: 0
    kernel_size: 1
    stride: 1
    weight_filler {
      type: "xavier"
    }
    bias_term: false
  }
}
layer {
  bottom: "inception_5b/1x1_badExposure"
  name: "inception_5b/1x1/bn_badExposure"
  top: "inception_5b/1x1/bn_badExposure"
  type: "BatchNorm"
  param {
    lr_mult: 1
    decay_mult: 1
  }
  param {
    lr_mult: 1
    decay_mult: 1
  }
  param {
    lr_mult: 1
    decay_mult: 1
  }
}
layer {
  bottom: "inception_5b/1x1/bn_badExposure"
  top: "inception_5b/1x1/bn/sc_badExposure"
  name: "inception_5b/1x1/bn/sc_badExposure"
  type: "Scale"
  param {
    lr_mult: 1
    decay_mult: 1
  }
  param {
    lr_mult: 1
    decay_mult: 1
  }
  scale_param {
    bias_term: true
  }
}
layer {
  bottom: "inception_5b/1x1/bn/sc_badExposure"
  top: "inception_5b/1x1/bn/sc_badExposure"
  name: "inception_5b/1x1/bn/sc/relu_badExposure"
  type: "ReLU"
}
layer {
  bottom: "inception_5a/output_badExposure"
  top: "inception_5b/double3x3_reduce_badExposure"
  name: "inception_5b/double3x3_reduce_badExposure"
  type: "Convolution"
  param {
    lr_mult: 1
    decay_mult: 1
  }
  convolution_param {
    num_output: 192
    pad: 0
    kernel_size: 1
    stride: 1
    weight_filler {
      type: "xavier"
    }
    bias_term: false
  }
}
layer {
  bottom: "inception_5b/double3x3_reduce_badExposure"
  name: "inception_5b/double3x3_reduce/bn_badExposure"
  top: "inception_5b/double3x3_reduce/bn_badExposure"
  type: "BatchNorm"
  param {
    lr_mult: 1
    decay_mult: 1
  }
  param {
    lr_mult: 1
    decay_mult: 1
  }
  param {
    lr_mult: 1
    decay_mult: 1
  }
}
layer {
  bottom: "inception_5b/double3x3_reduce/bn_badExposure"
  top: "inception_5b/double3x3_reduce/bn/sc_badExposure"
  name: "inception_5b/double3x3_reduce/bn/sc_badExposure"
  type: "Scale"
  param {
    lr_mult: 1
    decay_mult: 1
  }
  param {
    lr_mult: 1
    decay_mult: 1
  }
  scale_param {
    bias_term: true
  }
}
layer {
  bottom: "inception_5b/double3x3_reduce/bn/sc_badExposure"
  top: "inception_5b/double3x3_reduce/bn/sc_badExposure"
  name: "inception_5b/double3x3_reduce/bn/sc/relu_badExposure"
  type: "ReLU"
}
layer {
  bottom: "inception_5b/double3x3_reduce/bn/sc_badExposure"
  top: "inception_5b/double3x3a_badExposure"
  name: "inception_5b/double3x3a_badExposure"
  type: "Convolution"
  param {
    lr_mult: 1
    decay_mult: 1
  }
  convolution_param {
    num_output: 224
    pad: 1
    kernel_size: 3
    stride: 1
    weight_filler {
      type: "xavier"
    }
    bias_term: false
  }
}
layer {
  bottom: "inception_5b/double3x3a_badExposure"
  name: "inception_5b/double3x3a/bn_badExposure"
  top: "inception_5b/double3x3a/bn_badExposure"
  type: "BatchNorm"
  param {
    lr_mult: 1
    decay_mult: 1
  }
  param {
    lr_mult: 1
    decay_mult: 1
  }
  param {
    lr_mult: 1
    decay_mult: 1
  }
}
layer {
  bottom: "inception_5b/double3x3a/bn_badExposure"
  top: "inception_5b/double3x3a/bn/sc_badExposure"
  name: "inception_5b/double3x3a/bn/sc_badExposure"
  type: "Scale"
  param {
    lr_mult: 1
    decay_mult: 1
  }
  param {
    lr_mult: 1
    decay_mult: 1
  }
  scale_param {
    bias_term: true
  }
}
layer {
  bottom: "inception_5b/double3x3a/bn/sc_badExposure"
  top: "inception_5b/double3x3a/bn/sc_badExposure"
  name: "inception_5b/double3x3a/bn/sc/relu_badExposure"
  type: "ReLU"
}
layer {
  bottom: "inception_5b/double3x3a/bn/sc_badExposure"
  top: "inception_5b/double3x3b_badExposure"
  name: "inception_5b/double3x3b_badExposure"
  type: "Convolution"
  param {
    lr_mult: 1
    decay_mult: 1
  }
  convolution_param {
    num_output: 56
    pad: 1
    kernel_size: 3
    stride: 1
    weight_filler {
      type: "xavier"
    }
    bias_term: false
  }
}
layer {
  bottom: "inception_5b/double3x3b_badExposure"
  name: "inception_5b/double3x3b/bn_badExposure"
  top: "inception_5b/double3x3b/bn_badExposure"
  type: "BatchNorm"
  param {
    lr_mult: 1
    decay_mult: 1
  }
  param {
    lr_mult: 1
    decay_mult: 1
  }
  param {
    lr_mult: 1
    decay_mult: 1
  }
}
layer {
  bottom: "inception_5b/double3x3b/bn_badExposure"
  top: "inception_5b/double3x3b/bn/sc_badExposure"
  name: "inception_5b/double3x3b/bn/sc_badExposure"
  type: "Scale"
  param {
    lr_mult: 1
    decay_mult: 1
  }
  param {
    lr_mult: 1
    decay_mult: 1
  }
  scale_param {
    bias_term: true
  }
}
layer {
  bottom: "inception_5b/double3x3b/bn/sc_badExposure"
  top: "inception_5b/double3x3b/bn/sc_badExposure"
  name: "inception_5b/double3x3b/bn/sc/relu_badExposure"
  type: "ReLU"
}
layer {
  bottom: "inception_5a/output_badExposure"
  top: "inception_5b/pool_badExposure"
  name: "inception_5b/pool_badExposure"
  type: "Pooling"
  pooling_param {
    pool: MAX
    kernel_size: 3
    stride: 1
    pad: 1
  }
}
layer {
  bottom: "inception_5b/pool_badExposure"
  top: "inception_5b/pool_proj_badExposure"
  name: "inception_5b/pool_proj_badExposure"
  type: "Convolution"
  param {
    lr_mult: 1
    decay_mult: 1
  }
  convolution_param {
    num_output: 32
    pad: 0
    kernel_size: 1
    stride: 1
    weight_filler {
      type: "xavier"
    }
    bias_term: false
  }
}
layer {
  bottom: "inception_5b/pool_proj_badExposure"
  name: "inception_5b/pool_proj/bn_badExposure"
  top: "inception_5b/pool_proj/bn_badExposure"
  type: "BatchNorm"
  param {
    lr_mult: 1
    decay_mult: 1
  }
  param {
    lr_mult: 1
    decay_mult: 1
  }
  param {
    lr_mult: 1
    decay_mult: 1
  }
}
layer {
  bottom: "inception_5b/pool_proj/bn_badExposure"
  top: "inception_5b/pool_proj/bn/sc_badExposure"
  name: "inception_5b/pool_proj/bn/sc_badExposure"
  type: "Scale"
  param {
    lr_mult: 1
    decay_mult: 1
  }
  param {
    lr_mult: 1
    decay_mult: 1
  }
  scale_param {
    bias_term: true
  }
}
layer {
  bottom: "inception_5b/pool_proj/bn/sc_badExposure"
  top: "inception_5b/pool_proj/bn/sc_badExposure"
  name: "inception_5b/pool_proj/bn/sc/relu_badExposure"
  type: "ReLU"
}
layer {
  bottom: "inception_5b/1x1/bn/sc_badExposure"
  bottom: "inception_5b/double3x3b/bn/sc_badExposure"
  bottom: "inception_5b/pool_proj/bn/sc_badExposure"
  top: "inception_5b/output_badExposure"
  name: "inception_5b/output_badExposure"
  type: "Concat"
}
layer {
  bottom: "inception_5b/output_badExposure"
  top: "pool5/7x7_s1_badExposure"
  name: "pool5/7x7_s1_badExposure"
  type: "Pooling"
  pooling_param {
    pool: AVE
    kernel_size: 7
    stride: 1
  }
}
layer {
  name: "pool5/drop_7x7_s1_badExposure"
  type: "Dropout"
  bottom: "pool5/7x7_s1_badExposure"
  top: "pool5/drop_7x7_s1_badExposure"
  dropout_param {
    dropout_ratio: 0.5
  }
}

layer {
  bottom: "pool5/drop_7x7_s1_badExposure"
  top: "loss3_new/classifier_badExposure"
  name: "loss3_new/classifier_badExposure"
  type: "InnerProduct"
  param {
    lr_mult: 1
    decay_mult: 1
  }
  param {
    lr_mult: 2
    decay_mult: 0
  }
  inner_product_param {
    num_output: 128
    weight_filler {
      type: "xavier"
    }
    bias_filler {
      type: "constant"
      value: 0
    }
  }
}
layer {
  type: "ReLU"
  bottom: "loss3_new/classifier_badExposure"
  top: "loss3_new/classifier_badExposure"
  name: "relu_badExposure"
}
layer {
  type: "Dropout"
  bottom: "loss3_new/classifier_badExposure"
  top: "drop_badExposure"
  name: "drop_badExposure"
  dropout_param {
    dropout_ratio: 0.5
  }
}
layer {
  bottom: "drop_badExposure"
  top: "loss3_new_new/classifier_2_badExposure"
  name: "loss3_new_new/classifier_2_badExposure"
  type: "InnerProduct"
  param {
    lr_mult: 1
    decay_mult: 1
  }
  param {
    lr_mult: 2
    decay_mult: 0
  }
  inner_product_param {
    num_output: 11
    weight_filler {
      type: "xavier"
    }
    bias_filler {
      type: "constant"
      value: 0
    }
  }
}
layer {
  bottom: "loss3_new_new/classifier_2_badExposure"
  top: "softmax_badExposure"
  name: "softmax_badExposure"
  type: "Softmax"
}

#----------------------badWhiteBalance branch layers-----------------------
#----------------------badWhiteBalance branch layers-----------------------
#----------------------badWhiteBalance branch layers-----------------------
#----------------------badWhiteBalance branch layers-----------------------
#----------------------badWhiteBalance branch layers-----------------------

layer {
  bottom: "inception_4e/output_badWhiteBalance"
  top: "inception_5a/1x1_badWhiteBalance"
  name: "inception_5a/1x1_badWhiteBalance"
  type: "Convolution"
  include {
    phase: TRAIN
  }
  param {
    lr_mult: 1
    decay_mult: 1
  }
  convolution_param {
    num_output: 352
    pad: 0
    kernel_size: 1
    stride: 1
    weight_filler {
      type: "xavier"
    }
    bias_term: false
  }
}
layer {
  bottom: "inception_4e/output"
  top: "inception_5a/1x1_badWhiteBalance"
  name: "inception_5a/1x1_badWhiteBalance"
  type: "Convolution"
  include {
    phase: TEST
  }
  param {
    lr_mult: 1
    decay_mult: 1
  }
  convolution_param {
    num_output: 352
    pad: 0
    kernel_size: 1
    stride: 1
    weight_filler {
      type: "xavier"
    }
    bias_term: false
  }
}
layer {
  bottom: "inception_5a/1x1_badWhiteBalance"
  name: "inception_5a/1x1/bn_badWhiteBalance"
  top: "inception_5a/1x1/bn_badWhiteBalance"
  type: "BatchNorm"
  param {
    lr_mult: 1
    decay_mult: 1
  }
  param {
    lr_mult: 1
    decay_mult: 1
  }
  param {
    lr_mult: 1
    decay_mult: 1
  }
}
layer {
  bottom: "inception_5a/1x1/bn_badWhiteBalance"
  top: "inception_5a/1x1/bn/sc_badWhiteBalance"
  name: "inception_5a/1x1/bn/sc_badWhiteBalance"
  type: "Scale"
  param {
    lr_mult: 1
    decay_mult: 1
  }
  param {
    lr_mult: 1
    decay_mult: 1
  }
  scale_param {
    bias_term: true
  }
}
layer {
  bottom: "inception_5a/1x1/bn/sc_badWhiteBalance"
  top: "inception_5a/1x1/bn/sc_badWhiteBalance"
  name: "inception_5a/1x1/bn/sc/relu_badWhiteBalance"
  type: "ReLU"
}
layer {
  bottom: "inception_4e/output_badWhiteBalance"
  top: "inception_5a/3x3_reduce_badWhiteBalance"
  name: "inception_5a/3x3_reduce_badWhiteBalance"
  type: "Convolution"
  include {
    phase: TRAIN
  }
  param {
    lr_mult: 1
    decay_mult: 1
  }
  convolution_param {
    num_output: 192
    pad: 0
    kernel_size: 1
    stride: 1
    weight_filler {
      type: "xavier"
    }
    bias_term: false
  }
}
layer {
  bottom: "inception_4e/output"
  top: "inception_5a/3x3_reduce_badWhiteBalance"
  name: "inception_5a/3x3_reduce_badWhiteBalance"
  type: "Convolution"
  include {
    phase: TEST
  }
  param {
    lr_mult: 1
    decay_mult: 1
  }
  convolution_param {
    num_output: 192
    pad: 0
    kernel_size: 1
    stride: 1
    weight_filler {
      type: "xavier"
    }
    bias_term: false
  }
}
layer {
  bottom: "inception_5a/3x3_reduce_badWhiteBalance"
  name: "inception_5a/3x3_reduce/bn_badWhiteBalance"
  top: "inception_5a/3x3_reduce/bn_badWhiteBalance"
  type: "BatchNorm"
  param {
    lr_mult: 1
    decay_mult: 1
  }
  param {
    lr_mult: 1
    decay_mult: 1
  }
  param {
    lr_mult: 1
    decay_mult: 1
  }
}
layer {
  bottom: "inception_5a/3x3_reduce/bn_badWhiteBalance"
  top: "inception_5a/3x3_reduce/bn/sc_badWhiteBalance"
  name: "inception_5a/3x3_reduce/bn/sc_badWhiteBalance"
  type: "Scale"
  param {
    lr_mult: 1
    decay_mult: 1
  }
  param {
    lr_mult: 1
    decay_mult: 1
  }
  scale_param {
    bias_term: true
  }
}
layer {
  bottom: "inception_5a/3x3_reduce/bn/sc_badWhiteBalance"
  top: "inception_5a/3x3_reduce/bn/sc_badWhiteBalance"
  name: "inception_5a/3x3_reduce/bn/sc/relu_badWhiteBalance"
  type: "ReLU"
}
layer {
  bottom: "inception_5a/3x3_reduce/bn/sc_badWhiteBalance"
  top: "inception_5a/3x3_badWhiteBalance"
  name: "inception_5a/3x3_badWhiteBalance"
  type: "Convolution"
  param {
    lr_mult: 1
    decay_mult: 1
  }
  convolution_param {
    num_output: 320
    pad: 1
    kernel_size: 3
    stride: 1
    weight_filler {
      type: "xavier"
    }
    bias_term: false
  }
}
layer {
  bottom: "inception_5a/3x3_badWhiteBalance"
  name: "inception_5a/3x3/bn_badWhiteBalance"
  top: "inception_5a/3x3/bn_badWhiteBalance"
  type: "BatchNorm"
  param {
    lr_mult: 1
    decay_mult: 1
  }
  param {
    lr_mult: 1
    decay_mult: 1
  }
  param {
    lr_mult: 1
    decay_mult: 1
  }
}
layer {
  bottom: "inception_5a/3x3/bn_badWhiteBalance"
  top: "inception_5a/3x3/bn/sc_badWhiteBalance"
  name: "inception_5a/3x3/bn/sc_badWhiteBalance"
  type: "Scale"
  param {
    lr_mult: 1
    decay_mult: 1
  }
  param {
    lr_mult: 1
    decay_mult: 1
  }
  scale_param {
    bias_term: true
  }
}
layer {
  bottom: "inception_5a/3x3/bn/sc_badWhiteBalance"
  top: "inception_5a/3x3/bn/sc_badWhiteBalance"
  name: "inception_5a/3x3/bn/sc/relu_badWhiteBalance"
  type: "ReLU"
}
layer {
  bottom: "inception_4e/output_badWhiteBalance"
  top: "inception_5a/double3x3_reduce_badWhiteBalance"
  name: "inception_5a/double3x3_reduce_badWhiteBalance"
  type: "Convolution"
  include {
    phase: TRAIN
  }
  param {
    lr_mult: 1
    decay_mult: 1
  }
  convolution_param {
    num_output: 160
    pad: 0
    kernel_size: 1
    stride: 1
    weight_filler {
      type: "xavier"
    }
    bias_term: false
  }
}
layer {
  bottom: "inception_4e/output"
  top: "inception_5a/double3x3_reduce_badWhiteBalance"
  name: "inception_5a/double3x3_reduce_badWhiteBalance"
  type: "Convolution"
  include {
    phase: TEST
  }
  param {
    lr_mult: 1
    decay_mult: 1
  }
  convolution_param {
    num_output: 160
    pad: 0
    kernel_size: 1
    stride: 1
    weight_filler {
      type: "xavier"
    }
    bias_term: false
  }
}
layer {
  bottom: "inception_5a/double3x3_reduce_badWhiteBalance"
  name: "inception_5a/double3x3_reduce/bn_badWhiteBalance"
  top: "inception_5a/double3x3_reduce/bn_badWhiteBalance"
  type: "BatchNorm"
  param {
    lr_mult: 1
    decay_mult: 1
  }
  param {
    lr_mult: 1
    decay_mult: 1
  }
  param {
    lr_mult: 1
    decay_mult: 1
  }
}
layer {
  bottom: "inception_5a/double3x3_reduce/bn_badWhiteBalance"
  top: "inception_5a/double3x3_reduce/bn/sc_badWhiteBalance"
  name: "inception_5a/double3x3_reduce/bn/sc_badWhiteBalance"
  type: "Scale"
  param {
    lr_mult: 1
    decay_mult: 1
  }
  param {
    lr_mult: 1
    decay_mult: 1
  }
  scale_param {
    bias_term: true
  }
}
layer {
  bottom: "inception_5a/double3x3_reduce/bn/sc_badWhiteBalance"
  top: "inception_5a/double3x3_reduce/bn/sc_badWhiteBalance"
  name: "inception_5a/double3x3_reduce/bn/sc/relu_badWhiteBalance"
  type: "ReLU"
}
layer {
  bottom: "inception_5a/double3x3_reduce/bn/sc_badWhiteBalance"
  top: "inception_5a/double3x3a_badWhiteBalance"
  name: "inception_5a/double3x3a_badWhiteBalance"
  type: "Convolution"
  param {
    lr_mult: 1
    decay_mult: 1
  }
  convolution_param {
    num_output: 224
    pad: 1
    kernel_size: 3
    stride: 1
    weight_filler {
      type: "xavier"
    }
    bias_term: false
  }
}
layer {
  bottom: "inception_5a/double3x3a_badWhiteBalance"
  name: "inception_5a/double3x3a/bn_badWhiteBalance"
  top: "inception_5a/double3x3a/bn_badWhiteBalance"
  type: "BatchNorm"
  param {
    lr_mult: 1
    decay_mult: 1
  }
  param {
    lr_mult: 1
    decay_mult: 1
  }
  param {
    lr_mult: 1
    decay_mult: 1
  }
}
layer {
  bottom: "inception_5a/double3x3a/bn_badWhiteBalance"
  top: "inception_5a/double3x3a/bn/sc_badWhiteBalance"
  name: "inception_5a/double3x3a/bn/sc_badWhiteBalance"
  type: "Scale"
  param {
    lr_mult: 1
    decay_mult: 1
  }
  param {
    lr_mult: 1
    decay_mult: 1
  }
  scale_param {
    bias_term: true
  }
}
layer {
  bottom: "inception_5a/double3x3a/bn/sc_badWhiteBalance"
  top: "inception_5a/double3x3a/bn/sc_badWhiteBalance"
  name: "inception_5a/double3x3a/bn/sc/relu_badWhiteBalance"
  type: "ReLU"
}
layer {
  bottom: "inception_5a/double3x3a/bn/sc_badWhiteBalance"
  top: "inception_5a/double3x3b_badWhiteBalance"
  name: "inception_5a/double3x3b_badWhiteBalance"
  type: "Convolution"
  param {
    lr_mult: 1
    decay_mult: 1
  }
  convolution_param {
    num_output: 224
    pad: 1
    kernel_size: 3
    stride: 1
    weight_filler {
      type: "xavier"
    }
    bias_term: false
  }
}
layer {
  bottom: "inception_5a/double3x3b_badWhiteBalance"
  name: "inception_5a/double3x3b/bn_badWhiteBalance"
  top: "inception_5a/double3x3b/bn_badWhiteBalance"
  type: "BatchNorm"
  param {
    lr_mult: 1
    decay_mult: 1
  }
  param {
    lr_mult: 1
    decay_mult: 1
  }
  param {
    lr_mult: 1
    decay_mult: 1
  }
}
layer {
  bottom: "inception_5a/double3x3b/bn_badWhiteBalance"
  top: "inception_5a/double3x3b/bn/sc_badWhiteBalance"
  name: "inception_5a/double3x3b/bn/sc_badWhiteBalance"
  type: "Scale"
  param {
    lr_mult: 1
    decay_mult: 1
  }
  param {
    lr_mult: 1
    decay_mult: 1
  }
  scale_param {
    bias_term: true
  }
}
layer {
  bottom: "inception_5a/double3x3b/bn/sc_badWhiteBalance"
  top: "inception_5a/double3x3b/bn/sc_badWhiteBalance"
  name: "inception_5a/double3x3b/bn/sc/relu_badWhiteBalance"
  type: "ReLU"
}
layer {
  bottom: "inception_4e/output_badWhiteBalance"
  top: "inception_5a/pool_badWhiteBalance"
  name: "inception_5a/pool_badWhiteBalance"
  type: "Pooling"
  include {
    phase: TRAIN
  }
  pooling_param {
    pool: AVE
    kernel_size: 3
    stride: 1
    pad: 1
  }
}
layer {
  bottom: "inception_4e/output"
  top: "inception_5a/pool_badWhiteBalance"
  name: "inception_5a/pool_badWhiteBalance"
  type: "Pooling"
  include {
    phase: TEST
  }
  pooling_param {
    pool: AVE
    kernel_size: 3
    stride: 1
    pad: 1
  }
}
layer {
  bottom: "inception_5a/pool_badWhiteBalance"
  top: "inception_5a/pool_proj_badWhiteBalance"
  name: "inception_5a/pool_proj_badWhiteBalance"
  type: "Convolution"
  param {
    lr_mult: 1
    decay_mult: 1
  }
  convolution_param {
    num_output: 128
    pad: 0
    kernel_size: 1
    stride: 1
    weight_filler {
      type: "xavier"
    }
    bias_term: false
  }
}
layer {
  bottom: "inception_5a/pool_proj_badWhiteBalance"
  name: "inception_5a/pool_proj/bn_badWhiteBalance"
  top: "inception_5a/pool_proj/bn_badWhiteBalance"
  type: "BatchNorm"
  param {
    lr_mult: 1
    decay_mult: 1
  }
  param {
    lr_mult: 1
    decay_mult: 1
  }
  param {
    lr_mult: 1
    decay_mult: 1
  }
}
layer {
  bottom: "inception_5a/pool_proj/bn_badWhiteBalance"
  top: "inception_5a/pool_proj/bn/sc_badWhiteBalance"
  name: "inception_5a/pool_proj/bn/sc_badWhiteBalance"
  type: "Scale"
  param {
    lr_mult: 1
    decay_mult: 1
  }
  param {
    lr_mult: 1
    decay_mult: 1
  }
  scale_param {
    bias_term: true
  }
}
layer {
  bottom: "inception_5a/pool_proj/bn/sc_badWhiteBalance"
  top: "inception_5a/pool_proj/bn/sc_badWhiteBalance"
  name: "inception_5a/pool_proj/bn/sc/relu_badWhiteBalance"
  type: "ReLU"
}
layer {
  bottom: "inception_5a/1x1/bn/sc_badWhiteBalance"
  bottom: "inception_5a/3x3/bn/sc_badWhiteBalance"
  bottom: "inception_5a/double3x3b/bn/sc_badWhiteBalance"
  bottom: "inception_5a/pool_proj/bn/sc_badWhiteBalance"
  top: "inception_5a/output_badWhiteBalance"
  name: "inception_5a/output_badWhiteBalance"
  type: "Concat"
}
layer {
  bottom: "inception_5a/output_badWhiteBalance"
  top: "inception_5b/1x1_badWhiteBalance"
  name: "inception_5b/1x1_badWhiteBalance"
  type: "Convolution"
  param {
    lr_mult: 1
    decay_mult: 1
  }
  convolution_param {
    num_output: 88
    pad: 0
    kernel_size: 1
    stride: 1
    weight_filler {
      type: "xavier"
    }
    bias_term: false
  }
}
layer {
  bottom: "inception_5b/1x1_badWhiteBalance"
  name: "inception_5b/1x1/bn_badWhiteBalance"
  top: "inception_5b/1x1/bn_badWhiteBalance"
  type: "BatchNorm"
  param {
    lr_mult: 1
    decay_mult: 1
  }
  param {
    lr_mult: 1
    decay_mult: 1
  }
  param {
    lr_mult: 1
    decay_mult: 1
  }
}
layer {
  bottom: "inception_5b/1x1/bn_badWhiteBalance"
  top: "inception_5b/1x1/bn/sc_badWhiteBalance"
  name: "inception_5b/1x1/bn/sc_badWhiteBalance"
  type: "Scale"
  param {
    lr_mult: 1
    decay_mult: 1
  }
  param {
    lr_mult: 1
    decay_mult: 1
  }
  scale_param {
    bias_term: true
  }
}
layer {
  bottom: "inception_5b/1x1/bn/sc_badWhiteBalance"
  top: "inception_5b/1x1/bn/sc_badWhiteBalance"
  name: "inception_5b/1x1/bn/sc/relu_badWhiteBalance"
  type: "ReLU"
}
layer {
  bottom: "inception_5a/output_badWhiteBalance"
  top: "inception_5b/double3x3_reduce_badWhiteBalance"
  name: "inception_5b/double3x3_reduce_badWhiteBalance"
  type: "Convolution"
  param {
    lr_mult: 1
    decay_mult: 1
  }
  convolution_param {
    num_output: 192
    pad: 0
    kernel_size: 1
    stride: 1
    weight_filler {
      type: "xavier"
    }
    bias_term: false
  }
}
layer {
  bottom: "inception_5b/double3x3_reduce_badWhiteBalance"
  name: "inception_5b/double3x3_reduce/bn_badWhiteBalance"
  top: "inception_5b/double3x3_reduce/bn_badWhiteBalance"
  type: "BatchNorm"
  param {
    lr_mult: 1
    decay_mult: 1
  }
  param {
    lr_mult: 1
    decay_mult: 1
  }
  param {
    lr_mult: 1
    decay_mult: 1
  }
}
layer {
  bottom: "inception_5b/double3x3_reduce/bn_badWhiteBalance"
  top: "inception_5b/double3x3_reduce/bn/sc_badWhiteBalance"
  name: "inception_5b/double3x3_reduce/bn/sc_badWhiteBalance"
  type: "Scale"
  param {
    lr_mult: 1
    decay_mult: 1
  }
  param {
    lr_mult: 1
    decay_mult: 1
  }
  scale_param {
    bias_term: true
  }
}
layer {
  bottom: "inception_5b/double3x3_reduce/bn/sc_badWhiteBalance"
  top: "inception_5b/double3x3_reduce/bn/sc_badWhiteBalance"
  name: "inception_5b/double3x3_reduce/bn/sc/relu_badWhiteBalance"
  type: "ReLU"
}
layer {
  bottom: "inception_5b/double3x3_reduce/bn/sc_badWhiteBalance"
  top: "inception_5b/double3x3a_badWhiteBalance"
  name: "inception_5b/double3x3a_badWhiteBalance"
  type: "Convolution"
  param {
    lr_mult: 1
    decay_mult: 1
  }
  convolution_param {
    num_output: 224
    pad: 1
    kernel_size: 3
    stride: 1
    weight_filler {
      type: "xavier"
    }
    bias_term: false
  }
}
layer {
  bottom: "inception_5b/double3x3a_badWhiteBalance"
  name: "inception_5b/double3x3a/bn_badWhiteBalance"
  top: "inception_5b/double3x3a/bn_badWhiteBalance"
  type: "BatchNorm"
  param {
    lr_mult: 1
    decay_mult: 1
  }
  param {
    lr_mult: 1
    decay_mult: 1
  }
  param {
    lr_mult: 1
    decay_mult: 1
  }
}
layer {
  bottom: "inception_5b/double3x3a/bn_badWhiteBalance"
  top: "inception_5b/double3x3a/bn/sc_badWhiteBalance"
  name: "inception_5b/double3x3a/bn/sc_badWhiteBalance"
  type: "Scale"
  param {
    lr_mult: 1
    decay_mult: 1
  }
  param {
    lr_mult: 1
    decay_mult: 1
  }
  scale_param {
    bias_term: true
  }
}
layer {
  bottom: "inception_5b/double3x3a/bn/sc_badWhiteBalance"
  top: "inception_5b/double3x3a/bn/sc_badWhiteBalance"
  name: "inception_5b/double3x3a/bn/sc/relu_badWhiteBalance"
  type: "ReLU"
}
layer {
  bottom: "inception_5b/double3x3a/bn/sc_badWhiteBalance"
  top: "inception_5b/double3x3b_badWhiteBalance"
  name: "inception_5b/double3x3b_badWhiteBalance"
  type: "Convolution"
  param {
    lr_mult: 1
    decay_mult: 1
  }
  convolution_param {
    num_output: 56
    pad: 1
    kernel_size: 3
    stride: 1
    weight_filler {
      type: "xavier"
    }
    bias_term: false
  }
}
layer {
  bottom: "inception_5b/double3x3b_badWhiteBalance"
  name: "inception_5b/double3x3b/bn_badWhiteBalance"
  top: "inception_5b/double3x3b/bn_badWhiteBalance"
  type: "BatchNorm"
  param {
    lr_mult: 1
    decay_mult: 1
  }
  param {
    lr_mult: 1
    decay_mult: 1
  }
  param {
    lr_mult: 1
    decay_mult: 1
  }
}
layer {
  bottom: "inception_5b/double3x3b/bn_badWhiteBalance"
  top: "inception_5b/double3x3b/bn/sc_badWhiteBalance"
  name: "inception_5b/double3x3b/bn/sc_badWhiteBalance"
  type: "Scale"
  param {
    lr_mult: 1
    decay_mult: 1
  }
  param {
    lr_mult: 1
    decay_mult: 1
  }
  scale_param {
    bias_term: true
  }
}
layer {
  bottom: "inception_5b/double3x3b/bn/sc_badWhiteBalance"
  top: "inception_5b/double3x3b/bn/sc_badWhiteBalance"
  name: "inception_5b/double3x3b/bn/sc/relu_badWhiteBalance"
  type: "ReLU"
}
layer {
  bottom: "inception_5a/output_badWhiteBalance"
  top: "inception_5b/pool_badWhiteBalance"
  name: "inception_5b/pool_badWhiteBalance"
  type: "Pooling"
  pooling_param {
    pool: MAX
    kernel_size: 3
    stride: 1
    pad: 1
  }
}
layer {
  bottom: "inception_5b/pool_badWhiteBalance"
  top: "inception_5b/pool_proj_badWhiteBalance"
  name: "inception_5b/pool_proj_badWhiteBalance"
  type: "Convolution"
  param {
    lr_mult: 1
    decay_mult: 1
  }
  convolution_param {
    num_output: 32
    pad: 0
    kernel_size: 1
    stride: 1
    weight_filler {
      type: "xavier"
    }
    bias_term: false
  }
}
layer {
  bottom: "inception_5b/pool_proj_badWhiteBalance"
  name: "inception_5b/pool_proj/bn_badWhiteBalance"
  top: "inception_5b/pool_proj/bn_badWhiteBalance"
  type: "BatchNorm"
  param {
    lr_mult: 1
    decay_mult: 1
  }
  param {
    lr_mult: 1
    decay_mult: 1
  }
  param {
    lr_mult: 1
    decay_mult: 1
  }
}
layer {
  bottom: "inception_5b/pool_proj/bn_badWhiteBalance"
  top: "inception_5b/pool_proj/bn/sc_badWhiteBalance"
  name: "inception_5b/pool_proj/bn/sc_badWhiteBalance"
  type: "Scale"
  param {
    lr_mult: 1
    decay_mult: 1
  }
  param {
    lr_mult: 1
    decay_mult: 1
  }
  scale_param {
    bias_term: true
  }
}
layer {
  bottom: "inception_5b/pool_proj/bn/sc_badWhiteBalance"
  top: "inception_5b/pool_proj/bn/sc_badWhiteBalance"
  name: "inception_5b/pool_proj/bn/sc/relu_badWhiteBalance"
  type: "ReLU"
}
layer {
  bottom: "inception_5b/1x1/bn/sc_badWhiteBalance"
  bottom: "inception_5b/double3x3b/bn/sc_badWhiteBalance"
  bottom: "inception_5b/pool_proj/bn/sc_badWhiteBalance"
  top: "inception_5b/output_badWhiteBalance"
  name: "inception_5b/output_badWhiteBalance"
  type: "Concat"
}
layer {
  bottom: "inception_5b/output_badWhiteBalance"
  top: "pool5/7x7_s1_badWhiteBalance"
  name: "pool5/7x7_s1_badWhiteBalance"
  type: "Pooling"
  pooling_param {
    pool: AVE
    kernel_size: 7
    stride: 1
  }
}
layer {
  name: "pool5/drop_7x7_s1_badWhiteBalance"
  type: "Dropout"
  bottom: "pool5/7x7_s1_badWhiteBalance"
  top: "pool5/drop_7x7_s1_badWhiteBalance"
  dropout_param {
    dropout_ratio: 0.5
  }
}

layer {
  bottom: "pool5/drop_7x7_s1_badWhiteBalance"
  top: "loss3_new/classifier_badWhiteBalance"
  name: "loss3_new/classifier_badWhiteBalance"
  type: "InnerProduct"
  param {
    lr_mult: 1
    decay_mult: 1
  }
  param {
    lr_mult: 2
    decay_mult: 0
  }
  inner_product_param {
    num_output: 128
    weight_filler {
      type: "xavier"
    }
    bias_filler {
      type: "constant"
      value: 0
    }
  }
}
layer {
  type: "ReLU"
  bottom: "loss3_new/classifier_badWhiteBalance"
  top: "loss3_new/classifier_badWhiteBalance"
  name: "relu_badWhiteBalance"
}
layer {
  type: "Dropout"
  bottom: "loss3_new/classifier_badWhiteBalance"
  top: "drop_badWhiteBalance"
  name: "drop_badWhiteBalance"
  dropout_param {
    dropout_ratio: 0.5
  }
}
layer {
  bottom: "drop_badWhiteBalance"
  top: "loss3_new_new/classifier_2_badWhiteBalance"
  name: "loss3_new_new/classifier_2_badWhiteBalance"
  type: "InnerProduct"
  param {
    lr_mult: 1
    decay_mult: 1
  }
  param {
    lr_mult: 2
    decay_mult: 0
  }
  inner_product_param {
    num_output: 11
    weight_filler {
      type: "xavier"
    }
    bias_filler {
      type: "constant"
      value: 0
    }
  }
}
layer {
  bottom: "loss3_new_new/classifier_2_badWhiteBalance"
  top: "softmax_badWhiteBalance"
  name: "softmax_badWhiteBalance"
  type: "Softmax"
}

#----------------------badSaturation branch layers-----------------------
#----------------------badSaturation branch layers-----------------------
#----------------------badSaturation branch layers-----------------------
#----------------------badSaturation branch layers-----------------------
#----------------------badSaturation branch layers-----------------------

layer {
  bottom: "inception_4e/output_badSaturation"
  top: "inception_5a/1x1_badSaturation"
  name: "inception_5a/1x1_badSaturation"
  type: "Convolution"
  include {
    phase: TRAIN
  }
  param {
    lr_mult: 1
    decay_mult: 1
  }
  convolution_param {
    num_output: 352
    pad: 0
    kernel_size: 1
    stride: 1
    weight_filler {
      type: "xavier"
    }
    bias_term: false
  }
}
layer {
  bottom: "inception_4e/output"
  top: "inception_5a/1x1_badSaturation"
  name: "inception_5a/1x1_badSaturation"
  type: "Convolution"
  include {
    phase: TEST
  }
  param {
    lr_mult: 1
    decay_mult: 1
  }
  convolution_param {
    num_output: 352
    pad: 0
    kernel_size: 1
    stride: 1
    weight_filler {
      type: "xavier"
    }
    bias_term: false
  }
}
layer {
  bottom: "inception_5a/1x1_badSaturation"
  name: "inception_5a/1x1/bn_badSaturation"
  top: "inception_5a/1x1/bn_badSaturation"
  type: "BatchNorm"
  param {
    lr_mult: 1
    decay_mult: 1
  }
  param {
    lr_mult: 1
    decay_mult: 1
  }
  param {
    lr_mult: 1
    decay_mult: 1
  }
}
layer {
  bottom: "inception_5a/1x1/bn_badSaturation"
  top: "inception_5a/1x1/bn/sc_badSaturation"
  name: "inception_5a/1x1/bn/sc_badSaturation"
  type: "Scale"
  param {
    lr_mult: 1
    decay_mult: 1
  }
  param {
    lr_mult: 1
    decay_mult: 1
  }
  scale_param {
    bias_term: true
  }
}
layer {
  bottom: "inception_5a/1x1/bn/sc_badSaturation"
  top: "inception_5a/1x1/bn/sc_badSaturation"
  name: "inception_5a/1x1/bn/sc/relu_badSaturation"
  type: "ReLU"
}
layer {
  bottom: "inception_4e/output_badSaturation"
  top: "inception_5a/3x3_reduce_badSaturation"
  name: "inception_5a/3x3_reduce_badSaturation"
  type: "Convolution"
  include {
    phase: TRAIN
  }
  param {
    lr_mult: 1
    decay_mult: 1
  }
  convolution_param {
    num_output: 192
    pad: 0
    kernel_size: 1
    stride: 1
    weight_filler {
      type: "xavier"
    }
    bias_term: false
  }
}
layer {
  bottom: "inception_4e/output"
  top: "inception_5a/3x3_reduce_badSaturation"
  name: "inception_5a/3x3_reduce_badSaturation"
  type: "Convolution"
  include {
    phase: TEST
  }
  param {
    lr_mult: 1
    decay_mult: 1
  }
  convolution_param {
    num_output: 192
    pad: 0
    kernel_size: 1
    stride: 1
    weight_filler {
      type: "xavier"
    }
    bias_term: false
  }
}
layer {
  bottom: "inception_5a/3x3_reduce_badSaturation"
  name: "inception_5a/3x3_reduce/bn_badSaturation"
  top: "inception_5a/3x3_reduce/bn_badSaturation"
  type: "BatchNorm"
  param {
    lr_mult: 1
    decay_mult: 1
  }
  param {
    lr_mult: 1
    decay_mult: 1
  }
  param {
    lr_mult: 1
    decay_mult: 1
  }
}
layer {
  bottom: "inception_5a/3x3_reduce/bn_badSaturation"
  top: "inception_5a/3x3_reduce/bn/sc_badSaturation"
  name: "inception_5a/3x3_reduce/bn/sc_badSaturation"
  type: "Scale"
  param {
    lr_mult: 1
    decay_mult: 1
  }
  param {
    lr_mult: 1
    decay_mult: 1
  }
  scale_param {
    bias_term: true
  }
}
layer {
  bottom: "inception_5a/3x3_reduce/bn/sc_badSaturation"
  top: "inception_5a/3x3_reduce/bn/sc_badSaturation"
  name: "inception_5a/3x3_reduce/bn/sc/relu_badSaturation"
  type: "ReLU"
}
layer {
  bottom: "inception_5a/3x3_reduce/bn/sc_badSaturation"
  top: "inception_5a/3x3_badSaturation"
  name: "inception_5a/3x3_badSaturation"
  type: "Convolution"
  param {
    lr_mult: 1
    decay_mult: 1
  }
  convolution_param {
    num_output: 320
    pad: 1
    kernel_size: 3
    stride: 1
    weight_filler {
      type: "xavier"
    }
    bias_term: false
  }
}
layer {
  bottom: "inception_5a/3x3_badSaturation"
  name: "inception_5a/3x3/bn_badSaturation"
  top: "inception_5a/3x3/bn_badSaturation"
  type: "BatchNorm"
  param {
    lr_mult: 1
    decay_mult: 1
  }
  param {
    lr_mult: 1
    decay_mult: 1
  }
  param {
    lr_mult: 1
    decay_mult: 1
  }
}
layer {
  bottom: "inception_5a/3x3/bn_badSaturation"
  top: "inception_5a/3x3/bn/sc_badSaturation"
  name: "inception_5a/3x3/bn/sc_badSaturation"
  type: "Scale"
  param {
    lr_mult: 1
    decay_mult: 1
  }
  param {
    lr_mult: 1
    decay_mult: 1
  }
  scale_param {
    bias_term: true
  }
}
layer {
  bottom: "inception_5a/3x3/bn/sc_badSaturation"
  top: "inception_5a/3x3/bn/sc_badSaturation"
  name: "inception_5a/3x3/bn/sc/relu_badSaturation"
  type: "ReLU"
}
layer {
  bottom: "inception_4e/output_badSaturation"
  top: "inception_5a/double3x3_reduce_badSaturation"
  name: "inception_5a/double3x3_reduce_badSaturation"
  type: "Convolution"
  include {
    phase: TRAIN
  }
  param {
    lr_mult: 1
    decay_mult: 1
  }
  convolution_param {
    num_output: 160
    pad: 0
    kernel_size: 1
    stride: 1
    weight_filler {
      type: "xavier"
    }
    bias_term: false
  }
}
layer {
  bottom: "inception_4e/output"
  top: "inception_5a/double3x3_reduce_badSaturation"
  name: "inception_5a/double3x3_reduce_badSaturation"
  type: "Convolution"
  include {
    phase: TEST
  }
  param {
    lr_mult: 1
    decay_mult: 1
  }
  convolution_param {
    num_output: 160
    pad: 0
    kernel_size: 1
    stride: 1
    weight_filler {
      type: "xavier"
    }
    bias_term: false
  }
}
layer {
  bottom: "inception_5a/double3x3_reduce_badSaturation"
  name: "inception_5a/double3x3_reduce/bn_badSaturation"
  top: "inception_5a/double3x3_reduce/bn_badSaturation"
  type: "BatchNorm"
  param {
    lr_mult: 1
    decay_mult: 1
  }
  param {
    lr_mult: 1
    decay_mult: 1
  }
  param {
    lr_mult: 1
    decay_mult: 1
  }
}
layer {
  bottom: "inception_5a/double3x3_reduce/bn_badSaturation"
  top: "inception_5a/double3x3_reduce/bn/sc_badSaturation"
  name: "inception_5a/double3x3_reduce/bn/sc_badSaturation"
  type: "Scale"
  param {
    lr_mult: 1
    decay_mult: 1
  }
  param {
    lr_mult: 1
    decay_mult: 1
  }
  scale_param {
    bias_term: true
  }
}
layer {
  bottom: "inception_5a/double3x3_reduce/bn/sc_badSaturation"
  top: "inception_5a/double3x3_reduce/bn/sc_badSaturation"
  name: "inception_5a/double3x3_reduce/bn/sc/relu_badSaturation"
  type: "ReLU"
}
layer {
  bottom: "inception_5a/double3x3_reduce/bn/sc_badSaturation"
  top: "inception_5a/double3x3a_badSaturation"
  name: "inception_5a/double3x3a_badSaturation"
  type: "Convolution"
  param {
    lr_mult: 1
    decay_mult: 1
  }
  convolution_param {
    num_output: 224
    pad: 1
    kernel_size: 3
    stride: 1
    weight_filler {
      type: "xavier"
    }
    bias_term: false
  }
}
layer {
  bottom: "inception_5a/double3x3a_badSaturation"
  name: "inception_5a/double3x3a/bn_badSaturation"
  top: "inception_5a/double3x3a/bn_badSaturation"
  type: "BatchNorm"
  param {
    lr_mult: 1
    decay_mult: 1
  }
  param {
    lr_mult: 1
    decay_mult: 1
  }
  param {
    lr_mult: 1
    decay_mult: 1
  }
}
layer {
  bottom: "inception_5a/double3x3a/bn_badSaturation"
  top: "inception_5a/double3x3a/bn/sc_badSaturation"
  name: "inception_5a/double3x3a/bn/sc_badSaturation"
  type: "Scale"
  param {
    lr_mult: 1
    decay_mult: 1
  }
  param {
    lr_mult: 1
    decay_mult: 1
  }
  scale_param {
    bias_term: true
  }
}
layer {
  bottom: "inception_5a/double3x3a/bn/sc_badSaturation"
  top: "inception_5a/double3x3a/bn/sc_badSaturation"
  name: "inception_5a/double3x3a/bn/sc/relu_badSaturation"
  type: "ReLU"
}
layer {
  bottom: "inception_5a/double3x3a/bn/sc_badSaturation"
  top: "inception_5a/double3x3b_badSaturation"
  name: "inception_5a/double3x3b_badSaturation"
  type: "Convolution"
  param {
    lr_mult: 1
    decay_mult: 1
  }
  convolution_param {
    num_output: 224
    pad: 1
    kernel_size: 3
    stride: 1
    weight_filler {
      type: "xavier"
    }
    bias_term: false
  }
}
layer {
  bottom: "inception_5a/double3x3b_badSaturation"
  name: "inception_5a/double3x3b/bn_badSaturation"
  top: "inception_5a/double3x3b/bn_badSaturation"
  type: "BatchNorm"
  param {
    lr_mult: 1
    decay_mult: 1
  }
  param {
    lr_mult: 1
    decay_mult: 1
  }
  param {
    lr_mult: 1
    decay_mult: 1
  }
}
layer {
  bottom: "inception_5a/double3x3b/bn_badSaturation"
  top: "inception_5a/double3x3b/bn/sc_badSaturation"
  name: "inception_5a/double3x3b/bn/sc_badSaturation"
  type: "Scale"
  param {
    lr_mult: 1
    decay_mult: 1
  }
  param {
    lr_mult: 1
    decay_mult: 1
  }
  scale_param {
    bias_term: true
  }
}
layer {
  bottom: "inception_5a/double3x3b/bn/sc_badSaturation"
  top: "inception_5a/double3x3b/bn/sc_badSaturation"
  name: "inception_5a/double3x3b/bn/sc/relu_badSaturation"
  type: "ReLU"
}
layer {
  bottom: "inception_4e/output_badSaturation"
  top: "inception_5a/pool_badSaturation"
  name: "inception_5a/pool_badSaturation"
  type: "Pooling"
  include {
    phase: TRAIN
  }
  pooling_param {
    pool: AVE
    kernel_size: 3
    stride: 1
    pad: 1
  }
}
layer {
  bottom: "inception_4e/output"
  top: "inception_5a/pool_badSaturation"
  name: "inception_5a/pool_badSaturation"
  type: "Pooling"
  include {
    phase: TEST
  }
  pooling_param {
    pool: AVE
    kernel_size: 3
    stride: 1
    pad: 1
  }
}
layer {
  bottom: "inception_5a/pool_badSaturation"
  top: "inception_5a/pool_proj_badSaturation"
  name: "inception_5a/pool_proj_badSaturation"
  type: "Convolution"
  param {
    lr_mult: 1
    decay_mult: 1
  }
  convolution_param {
    num_output: 128
    pad: 0
    kernel_size: 1
    stride: 1
    weight_filler {
      type: "xavier"
    }
    bias_term: false
  }
}
layer {
  bottom: "inception_5a/pool_proj_badSaturation"
  name: "inception_5a/pool_proj/bn_badSaturation"
  top: "inception_5a/pool_proj/bn_badSaturation"
  type: "BatchNorm"
  param {
    lr_mult: 1
    decay_mult: 1
  }
  param {
    lr_mult: 1
    decay_mult: 1
  }
  param {
    lr_mult: 1
    decay_mult: 1
  }
}
layer {
  bottom: "inception_5a/pool_proj/bn_badSaturation"
  top: "inception_5a/pool_proj/bn/sc_badSaturation"
  name: "inception_5a/pool_proj/bn/sc_badSaturation"
  type: "Scale"
  param {
    lr_mult: 1
    decay_mult: 1
  }
  param {
    lr_mult: 1
    decay_mult: 1
  }
  scale_param {
    bias_term: true
  }
}
layer {
  bottom: "inception_5a/pool_proj/bn/sc_badSaturation"
  top: "inception_5a/pool_proj/bn/sc_badSaturation"
  name: "inception_5a/pool_proj/bn/sc/relu_badSaturation"
  type: "ReLU"
}
layer {
  bottom: "inception_5a/1x1/bn/sc_badSaturation"
  bottom: "inception_5a/3x3/bn/sc_badSaturation"
  bottom: "inception_5a/double3x3b/bn/sc_badSaturation"
  bottom: "inception_5a/pool_proj/bn/sc_badSaturation"
  top: "inception_5a/output_badSaturation"
  name: "inception_5a/output_badSaturation"
  type: "Concat"
}
layer {
  bottom: "inception_5a/output_badSaturation"
  top: "inception_5b/1x1_badSaturation"
  name: "inception_5b/1x1_badSaturation"
  type: "Convolution"
  param {
    lr_mult: 1
    decay_mult: 1
  }
  convolution_param {
    num_output: 88
    pad: 0
    kernel_size: 1
    stride: 1
    weight_filler {
      type: "xavier"
    }
    bias_term: false
  }
}
layer {
  bottom: "inception_5b/1x1_badSaturation"
  name: "inception_5b/1x1/bn_badSaturation"
  top: "inception_5b/1x1/bn_badSaturation"
  type: "BatchNorm"
  param {
    lr_mult: 1
    decay_mult: 1
  }
  param {
    lr_mult: 1
    decay_mult: 1
  }
  param {
    lr_mult: 1
    decay_mult: 1
  }
}
layer {
  bottom: "inception_5b/1x1/bn_badSaturation"
  top: "inception_5b/1x1/bn/sc_badSaturation"
  name: "inception_5b/1x1/bn/sc_badSaturation"
  type: "Scale"
  param {
    lr_mult: 1
    decay_mult: 1
  }
  param {
    lr_mult: 1
    decay_mult: 1
  }
  scale_param {
    bias_term: true
  }
}
layer {
  bottom: "inception_5b/1x1/bn/sc_badSaturation"
  top: "inception_5b/1x1/bn/sc_badSaturation"
  name: "inception_5b/1x1/bn/sc/relu_badSaturation"
  type: "ReLU"
}
layer {
  bottom: "inception_5a/output_badSaturation"
  top: "inception_5b/double3x3_reduce_badSaturation"
  name: "inception_5b/double3x3_reduce_badSaturation"
  type: "Convolution"
  param {
    lr_mult: 1
    decay_mult: 1
  }
  convolution_param {
    num_output: 192
    pad: 0
    kernel_size: 1
    stride: 1
    weight_filler {
      type: "xavier"
    }
    bias_term: false
  }
}
layer {
  bottom: "inception_5b/double3x3_reduce_badSaturation"
  name: "inception_5b/double3x3_reduce/bn_badSaturation"
  top: "inception_5b/double3x3_reduce/bn_badSaturation"
  type: "BatchNorm"
  param {
    lr_mult: 1
    decay_mult: 1
  }
  param {
    lr_mult: 1
    decay_mult: 1
  }
  param {
    lr_mult: 1
    decay_mult: 1
  }
}
layer {
  bottom: "inception_5b/double3x3_reduce/bn_badSaturation"
  top: "inception_5b/double3x3_reduce/bn/sc_badSaturation"
  name: "inception_5b/double3x3_reduce/bn/sc_badSaturation"
  type: "Scale"
  param {
    lr_mult: 1
    decay_mult: 1
  }
  param {
    lr_mult: 1
    decay_mult: 1
  }
  scale_param {
    bias_term: true
  }
}
layer {
  bottom: "inception_5b/double3x3_reduce/bn/sc_badSaturation"
  top: "inception_5b/double3x3_reduce/bn/sc_badSaturation"
  name: "inception_5b/double3x3_reduce/bn/sc/relu_badSaturation"
  type: "ReLU"
}
layer {
  bottom: "inception_5b/double3x3_reduce/bn/sc_badSaturation"
  top: "inception_5b/double3x3a_badSaturation"
  name: "inception_5b/double3x3a_badSaturation"
  type: "Convolution"
  param {
    lr_mult: 1
    decay_mult: 1
  }
  convolution_param {
    num_output: 224
    pad: 1
    kernel_size: 3
    stride: 1
    weight_filler {
      type: "xavier"
    }
    bias_term: false
  }
}
layer {
  bottom: "inception_5b/double3x3a_badSaturation"
  name: "inception_5b/double3x3a/bn_badSaturation"
  top: "inception_5b/double3x3a/bn_badSaturation"
  type: "BatchNorm"
  param {
    lr_mult: 1
    decay_mult: 1
  }
  param {
    lr_mult: 1
    decay_mult: 1
  }
  param {
    lr_mult: 1
    decay_mult: 1
  }
}
layer {
  bottom: "inception_5b/double3x3a/bn_badSaturation"
  top: "inception_5b/double3x3a/bn/sc_badSaturation"
  name: "inception_5b/double3x3a/bn/sc_badSaturation"
  type: "Scale"
  param {
    lr_mult: 1
    decay_mult: 1
  }
  param {
    lr_mult: 1
    decay_mult: 1
  }
  scale_param {
    bias_term: true
  }
}
layer {
  bottom: "inception_5b/double3x3a/bn/sc_badSaturation"
  top: "inception_5b/double3x3a/bn/sc_badSaturation"
  name: "inception_5b/double3x3a/bn/sc/relu_badSaturation"
  type: "ReLU"
}
layer {
  bottom: "inception_5b/double3x3a/bn/sc_badSaturation"
  top: "inception_5b/double3x3b_badSaturation"
  name: "inception_5b/double3x3b_badSaturation"
  type: "Convolution"
  param {
    lr_mult: 1
    decay_mult: 1
  }
  convolution_param {
    num_output: 56
    pad: 1
    kernel_size: 3
    stride: 1
    weight_filler {
      type: "xavier"
    }
    bias_term: false
  }
}
layer {
  bottom: "inception_5b/double3x3b_badSaturation"
  name: "inception_5b/double3x3b/bn_badSaturation"
  top: "inception_5b/double3x3b/bn_badSaturation"
  type: "BatchNorm"
  param {
    lr_mult: 1
    decay_mult: 1
  }
  param {
    lr_mult: 1
    decay_mult: 1
  }
  param {
    lr_mult: 1
    decay_mult: 1
  }
}
layer {
  bottom: "inception_5b/double3x3b/bn_badSaturation"
  top: "inception_5b/double3x3b/bn/sc_badSaturation"
  name: "inception_5b/double3x3b/bn/sc_badSaturation"
  type: "Scale"
  param {
    lr_mult: 1
    decay_mult: 1
  }
  param {
    lr_mult: 1
    decay_mult: 1
  }
  scale_param {
    bias_term: true
  }
}
layer {
  bottom: "inception_5b/double3x3b/bn/sc_badSaturation"
  top: "inception_5b/double3x3b/bn/sc_badSaturation"
  name: "inception_5b/double3x3b/bn/sc/relu_badSaturation"
  type: "ReLU"
}
layer {
  bottom: "inception_5a/output_badSaturation"
  top: "inception_5b/pool_badSaturation"
  name: "inception_5b/pool_badSaturation"
  type: "Pooling"
  pooling_param {
    pool: MAX
    kernel_size: 3
    stride: 1
    pad: 1
  }
}
layer {
  bottom: "inception_5b/pool_badSaturation"
  top: "inception_5b/pool_proj_badSaturation"
  name: "inception_5b/pool_proj_badSaturation"
  type: "Convolution"
  param {
    lr_mult: 1
    decay_mult: 1
  }
  convolution_param {
    num_output: 32
    pad: 0
    kernel_size: 1
    stride: 1
    weight_filler {
      type: "xavier"
    }
    bias_term: false
  }
}
layer {
  bottom: "inception_5b/pool_proj_badSaturation"
  name: "inception_5b/pool_proj/bn_badSaturation"
  top: "inception_5b/pool_proj/bn_badSaturation"
  type: "BatchNorm"
  param {
    lr_mult: 1
    decay_mult: 1
  }
  param {
    lr_mult: 1
    decay_mult: 1
  }
  param {
    lr_mult: 1
    decay_mult: 1
  }
}
layer {
  bottom: "inception_5b/pool_proj/bn_badSaturation"
  top: "inception_5b/pool_proj/bn/sc_badSaturation"
  name: "inception_5b/pool_proj/bn/sc_badSaturation"
  type: "Scale"
  param {
    lr_mult: 1
    decay_mult: 1
  }
  param {
    lr_mult: 1
    decay_mult: 1
  }
  scale_param {
    bias_term: true
  }
}
layer {
  bottom: "inception_5b/pool_proj/bn/sc_badSaturation"
  top: "inception_5b/pool_proj/bn/sc_badSaturation"
  name: "inception_5b/pool_proj/bn/sc/relu_badSaturation"
  type: "ReLU"
}
layer {
  bottom: "inception_5b/1x1/bn/sc_badSaturation"
  bottom: "inception_5b/double3x3b/bn/sc_badSaturation"
  bottom: "inception_5b/pool_proj/bn/sc_badSaturation"
  top: "inception_5b/output_badSaturation"
  name: "inception_5b/output_badSaturation"
  type: "Concat"
}
layer {
  bottom: "inception_5b/output_badSaturation"
  top: "pool5/7x7_s1_badSaturation"
  name: "pool5/7x7_s1_badSaturation"
  type: "Pooling"
  pooling_param {
    pool: AVE
    kernel_size: 7
    stride: 1
  }
}
layer {
  name: "pool5/drop_7x7_s1_badSaturation"
  type: "Dropout"
  bottom: "pool5/7x7_s1_badSaturation"
  top: "pool5/drop_7x7_s1_badSaturation"
  dropout_param {
    dropout_ratio: 0.5
  }
}

layer {
  bottom: "pool5/drop_7x7_s1_badSaturation"
  top: "loss3_new/classifier_badSaturation"
  name: "loss3_new/classifier_badSaturation"
  type: "InnerProduct"
  param {
    lr_mult: 1
    decay_mult: 1
  }
  param {
    lr_mult: 2
    decay_mult: 0
  }
  inner_product_param {
    num_output: 128
    weight_filler {
      type: "xavier"
    }
    bias_filler {
      type: "constant"
      value: 0
    }
  }
}
layer {
  type: "ReLU"
  bottom: "loss3_new/classifier_badSaturation"
  top: "loss3_new/classifier_badSaturation"
  name: "relu_badSaturation"
}
layer {
  type: "Dropout"
  bottom: "loss3_new/classifier_badSaturation"
  top: "drop_badSaturation"
  name: "drop_badSaturation"
  dropout_param {
    dropout_ratio: 0.5
  }
}
layer {
  bottom: "drop_badSaturation"
  top: "loss3_new_new/classifier_2_badSaturation"
  name: "loss3_new_new/classifier_2_badSaturation"
  type: "InnerProduct"
  param {
    lr_mult: 1
    decay_mult: 1
  }
  param {
    lr_mult: 2
    decay_mult: 0
  }
  inner_product_param {
    num_output: 21
    weight_filler {
      type: "xavier"
    }
    bias_filler {
      type: "constant"
      value: 0
    }
  }
}
layer {
  bottom: "loss3_new_new/classifier_2_badSaturation"
  top: "softmax_badSaturation"
  name: "softmax_badSaturation"
  type: "Softmax"
}

#----------------------noise branch layers-----------------------
#----------------------noise branch layers-----------------------
#----------------------noise branch layers-----------------------
#----------------------noise branch layers-----------------------
#----------------------noise branch layers-----------------------

layer {
  bottom: "inception_4e/output_noise"
  top: "inception_5a/1x1_noise"
  name: "inception_5a/1x1_noise"
  type: "Convolution"
  include {
    phase: TRAIN
  }
  param {
    lr_mult: 1
    decay_mult: 1
  }
  convolution_param {
    num_output: 352
    pad: 0
    kernel_size: 1
    stride: 1
    weight_filler {
      type: "xavier"
    }
    bias_term: false
  }
}
layer {
  bottom: "inception_4e/output"
  top: "inception_5a/1x1_noise"
  name: "inception_5a/1x1_noise"
  type: "Convolution"
  include {
    phase: TEST
  }
  param {
    lr_mult: 1
    decay_mult: 1
  }
  convolution_param {
    num_output: 352
    pad: 0
    kernel_size: 1
    stride: 1
    weight_filler {
      type: "xavier"
    }
    bias_term: false
  }
}
layer {
  bottom: "inception_5a/1x1_noise"
  name: "inception_5a/1x1/bn_noise"
  top: "inception_5a/1x1/bn_noise"
  type: "BatchNorm"
  param {
    lr_mult: 1
    decay_mult: 1
  }
  param {
    lr_mult: 1
    decay_mult: 1
  }
  param {
    lr_mult: 1
    decay_mult: 1
  }
}
layer {
  bottom: "inception_5a/1x1/bn_noise"
  top: "inception_5a/1x1/bn/sc_noise"
  name: "inception_5a/1x1/bn/sc_noise"
  type: "Scale"
  param {
    lr_mult: 1
    decay_mult: 1
  }
  param {
    lr_mult: 1
    decay_mult: 1
  }
  scale_param {
    bias_term: true
  }
}
layer {
  bottom: "inception_5a/1x1/bn/sc_noise"
  top: "inception_5a/1x1/bn/sc_noise"
  name: "inception_5a/1x1/bn/sc/relu_noise"
  type: "ReLU"
}
layer {
  bottom: "inception_4e/output_noise"
  top: "inception_5a/3x3_reduce_noise"
  name: "inception_5a/3x3_reduce_noise"
  type: "Convolution"
  include {
    phase: TRAIN
  }
  param {
    lr_mult: 1
    decay_mult: 1
  }
  convolution_param {
    num_output: 192
    pad: 0
    kernel_size: 1
    stride: 1
    weight_filler {
      type: "xavier"
    }
    bias_term: false
  }
}
layer {
  bottom: "inception_4e/output"
  top: "inception_5a/3x3_reduce_noise"
  name: "inception_5a/3x3_reduce_noise"
  type: "Convolution"
  include {
    phase: TEST
  }
  param {
    lr_mult: 1
    decay_mult: 1
  }
  convolution_param {
    num_output: 192
    pad: 0
    kernel_size: 1
    stride: 1
    weight_filler {
      type: "xavier"
    }
    bias_term: false
  }
}
layer {
  bottom: "inception_5a/3x3_reduce_noise"
  name: "inception_5a/3x3_reduce/bn_noise"
  top: "inception_5a/3x3_reduce/bn_noise"
  type: "BatchNorm"
  param {
    lr_mult: 1
    decay_mult: 1
  }
  param {
    lr_mult: 1
    decay_mult: 1
  }
  param {
    lr_mult: 1
    decay_mult: 1
  }
}
layer {
  bottom: "inception_5a/3x3_reduce/bn_noise"
  top: "inception_5a/3x3_reduce/bn/sc_noise"
  name: "inception_5a/3x3_reduce/bn/sc_noise"
  type: "Scale"
  param {
    lr_mult: 1
    decay_mult: 1
  }
  param {
    lr_mult: 1
    decay_mult: 1
  }
  scale_param {
    bias_term: true
  }
}
layer {
  bottom: "inception_5a/3x3_reduce/bn/sc_noise"
  top: "inception_5a/3x3_reduce/bn/sc_noise"
  name: "inception_5a/3x3_reduce/bn/sc/relu_noise"
  type: "ReLU"
}
layer {
  bottom: "inception_5a/3x3_reduce/bn/sc_noise"
  top: "inception_5a/3x3_noise"
  name: "inception_5a/3x3_noise"
  type: "Convolution"
  param {
    lr_mult: 1
    decay_mult: 1
  }
  convolution_param {
    num_output: 320
    pad: 1
    kernel_size: 3
    stride: 1
    weight_filler {
      type: "xavier"
    }
    bias_term: false
  }
}
layer {
  bottom: "inception_5a/3x3_noise"
  name: "inception_5a/3x3/bn_noise"
  top: "inception_5a/3x3/bn_noise"
  type: "BatchNorm"
  param {
    lr_mult: 1
    decay_mult: 1
  }
  param {
    lr_mult: 1
    decay_mult: 1
  }
  param {
    lr_mult: 1
    decay_mult: 1
  }
}
layer {
  bottom: "inception_5a/3x3/bn_noise"
  top: "inception_5a/3x3/bn/sc_noise"
  name: "inception_5a/3x3/bn/sc_noise"
  type: "Scale"
  param {
    lr_mult: 1
    decay_mult: 1
  }
  param {
    lr_mult: 1
    decay_mult: 1
  }
  scale_param {
    bias_term: true
  }
}
layer {
  bottom: "inception_5a/3x3/bn/sc_noise"
  top: "inception_5a/3x3/bn/sc_noise"
  name: "inception_5a/3x3/bn/sc/relu_noise"
  type: "ReLU"
}
layer {
  bottom: "inception_4e/output_noise"
  top: "inception_5a/double3x3_reduce_noise"
  name: "inception_5a/double3x3_reduce_noise"
  type: "Convolution"
  include {
    phase: TRAIN
  }
  param {
    lr_mult: 1
    decay_mult: 1
  }
  convolution_param {
    num_output: 160
    pad: 0
    kernel_size: 1
    stride: 1
    weight_filler {
      type: "xavier"
    }
    bias_term: false
  }
}
layer {
  bottom: "inception_4e/output"
  top: "inception_5a/double3x3_reduce_noise"
  name: "inception_5a/double3x3_reduce_noise"
  type: "Convolution"
  include {
    phase: TEST
  }
  param {
    lr_mult: 1
    decay_mult: 1
  }
  convolution_param {
    num_output: 160
    pad: 0
    kernel_size: 1
    stride: 1
    weight_filler {
      type: "xavier"
    }
    bias_term: false
  }
}
layer {
  bottom: "inception_5a/double3x3_reduce_noise"
  name: "inception_5a/double3x3_reduce/bn_noise"
  top: "inception_5a/double3x3_reduce/bn_noise"
  type: "BatchNorm"
  param {
    lr_mult: 1
    decay_mult: 1
  }
  param {
    lr_mult: 1
    decay_mult: 1
  }
  param {
    lr_mult: 1
    decay_mult: 1
  }
}
layer {
  bottom: "inception_5a/double3x3_reduce/bn_noise"
  top: "inception_5a/double3x3_reduce/bn/sc_noise"
  name: "inception_5a/double3x3_reduce/bn/sc_noise"
  type: "Scale"
  param {
    lr_mult: 1
    decay_mult: 1
  }
  param {
    lr_mult: 1
    decay_mult: 1
  }
  scale_param {
    bias_term: true
  }
}
layer {
  bottom: "inception_5a/double3x3_reduce/bn/sc_noise"
  top: "inception_5a/double3x3_reduce/bn/sc_noise"
  name: "inception_5a/double3x3_reduce/bn/sc/relu_noise"
  type: "ReLU"
}
layer {
  bottom: "inception_5a/double3x3_reduce/bn/sc_noise"
  top: "inception_5a/double3x3a_noise"
  name: "inception_5a/double3x3a_noise"
  type: "Convolution"
  param {
    lr_mult: 1
    decay_mult: 1
  }
  convolution_param {
    num_output: 224
    pad: 1
    kernel_size: 3
    stride: 1
    weight_filler {
      type: "xavier"
    }
    bias_term: false
  }
}
layer {
  bottom: "inception_5a/double3x3a_noise"
  name: "inception_5a/double3x3a/bn_noise"
  top: "inception_5a/double3x3a/bn_noise"
  type: "BatchNorm"
  param {
    lr_mult: 1
    decay_mult: 1
  }
  param {
    lr_mult: 1
    decay_mult: 1
  }
  param {
    lr_mult: 1
    decay_mult: 1
  }
}
layer {
  bottom: "inception_5a/double3x3a/bn_noise"
  top: "inception_5a/double3x3a/bn/sc_noise"
  name: "inception_5a/double3x3a/bn/sc_noise"
  type: "Scale"
  param {
    lr_mult: 1
    decay_mult: 1
  }
  param {
    lr_mult: 1
    decay_mult: 1
  }
  scale_param {
    bias_term: true
  }
}
layer {
  bottom: "inception_5a/double3x3a/bn/sc_noise"
  top: "inception_5a/double3x3a/bn/sc_noise"
  name: "inception_5a/double3x3a/bn/sc/relu_noise"
  type: "ReLU"
}
layer {
  bottom: "inception_5a/double3x3a/bn/sc_noise"
  top: "inception_5a/double3x3b_noise"
  name: "inception_5a/double3x3b_noise"
  type: "Convolution"
  param {
    lr_mult: 1
    decay_mult: 1
  }
  convolution_param {
    num_output: 224
    pad: 1
    kernel_size: 3
    stride: 1
    weight_filler {
      type: "xavier"
    }
    bias_term: false
  }
}
layer {
  bottom: "inception_5a/double3x3b_noise"
  name: "inception_5a/double3x3b/bn_noise"
  top: "inception_5a/double3x3b/bn_noise"
  type: "BatchNorm"
  param {
    lr_mult: 1
    decay_mult: 1
  }
  param {
    lr_mult: 1
    decay_mult: 1
  }
  param {
    lr_mult: 1
    decay_mult: 1
  }
}
layer {
  bottom: "inception_5a/double3x3b/bn_noise"
  top: "inception_5a/double3x3b/bn/sc_noise"
  name: "inception_5a/double3x3b/bn/sc_noise"
  type: "Scale"
  param {
    lr_mult: 1
    decay_mult: 1
  }
  param {
    lr_mult: 1
    decay_mult: 1
  }
  scale_param {
    bias_term: true
  }
}
layer {
  bottom: "inception_5a/double3x3b/bn/sc_noise"
  top: "inception_5a/double3x3b/bn/sc_noise"
  name: "inception_5a/double3x3b/bn/sc/relu_noise"
  type: "ReLU"
}
layer {
  bottom: "inception_4e/output_noise"
  top: "inception_5a/pool_noise"
  name: "inception_5a/pool_noise"
  type: "Pooling"
  include {
    phase: TRAIN
  }
  pooling_param {
    pool: AVE
    kernel_size: 3
    stride: 1
    pad: 1
  }
}
layer {
  bottom: "inception_4e/output"
  top: "inception_5a/pool_noise"
  name: "inception_5a/pool_noise"
  type: "Pooling"
  include {
    phase: TEST
  }
  pooling_param {
    pool: AVE
    kernel_size: 3
    stride: 1
    pad: 1
  }
}
layer {
  bottom: "inception_5a/pool_noise"
  top: "inception_5a/pool_proj_noise"
  name: "inception_5a/pool_proj_noise"
  type: "Convolution"
  param {
    lr_mult: 1
    decay_mult: 1
  }
  convolution_param {
    num_output: 128
    pad: 0
    kernel_size: 1
    stride: 1
    weight_filler {
      type: "xavier"
    }
    bias_term: false
  }
}
layer {
  bottom: "inception_5a/pool_proj_noise"
  name: "inception_5a/pool_proj/bn_noise"
  top: "inception_5a/pool_proj/bn_noise"
  type: "BatchNorm"
  param {
    lr_mult: 1
    decay_mult: 1
  }
  param {
    lr_mult: 1
    decay_mult: 1
  }
  param {
    lr_mult: 1
    decay_mult: 1
  }
}
layer {
  bottom: "inception_5a/pool_proj/bn_noise"
  top: "inception_5a/pool_proj/bn/sc_noise"
  name: "inception_5a/pool_proj/bn/sc_noise"
  type: "Scale"
  param {
    lr_mult: 1
    decay_mult: 1
  }
  param {
    lr_mult: 1
    decay_mult: 1
  }
  scale_param {
    bias_term: true
  }
}
layer {
  bottom: "inception_5a/pool_proj/bn/sc_noise"
  top: "inception_5a/pool_proj/bn/sc_noise"
  name: "inception_5a/pool_proj/bn/sc/relu_noise"
  type: "ReLU"
}
layer {
  bottom: "inception_5a/1x1/bn/sc_noise"
  bottom: "inception_5a/3x3/bn/sc_noise"
  bottom: "inception_5a/double3x3b/bn/sc_noise"
  bottom: "inception_5a/pool_proj/bn/sc_noise"
  top: "inception_5a/output_noise"
  name: "inception_5a/output_noise"
  type: "Concat"
}
layer {
  bottom: "inception_5a/output_noise"
  top: "inception_5b/1x1_noise"
  name: "inception_5b/1x1_noise"
  type: "Convolution"
  param {
    lr_mult: 1
    decay_mult: 1
  }
  convolution_param {
    num_output: 88
    pad: 0
    kernel_size: 1
    stride: 1
    weight_filler {
      type: "xavier"
    }
    bias_term: false
  }
}
layer {
  bottom: "inception_5b/1x1_noise"
  name: "inception_5b/1x1/bn_noise"
  top: "inception_5b/1x1/bn_noise"
  type: "BatchNorm"
  param {
    lr_mult: 1
    decay_mult: 1
  }
  param {
    lr_mult: 1
    decay_mult: 1
  }
  param {
    lr_mult: 1
    decay_mult: 1
  }
}
layer {
  bottom: "inception_5b/1x1/bn_noise"
  top: "inception_5b/1x1/bn/sc_noise"
  name: "inception_5b/1x1/bn/sc_noise"
  type: "Scale"
  param {
    lr_mult: 1
    decay_mult: 1
  }
  param {
    lr_mult: 1
    decay_mult: 1
  }
  scale_param {
    bias_term: true
  }
}
layer {
  bottom: "inception_5b/1x1/bn/sc_noise"
  top: "inception_5b/1x1/bn/sc_noise"
  name: "inception_5b/1x1/bn/sc/relu_noise"
  type: "ReLU"
}
layer {
  bottom: "inception_5a/output_noise"
  top: "inception_5b/double3x3_reduce_noise"
  name: "inception_5b/double3x3_reduce_noise"
  type: "Convolution"
  param {
    lr_mult: 1
    decay_mult: 1
  }
  convolution_param {
    num_output: 192
    pad: 0
    kernel_size: 1
    stride: 1
    weight_filler {
      type: "xavier"
    }
    bias_term: false
  }
}
layer {
  bottom: "inception_5b/double3x3_reduce_noise"
  name: "inception_5b/double3x3_reduce/bn_noise"
  top: "inception_5b/double3x3_reduce/bn_noise"
  type: "BatchNorm"
  param {
    lr_mult: 1
    decay_mult: 1
  }
  param {
    lr_mult: 1
    decay_mult: 1
  }
  param {
    lr_mult: 1
    decay_mult: 1
  }
}
layer {
  bottom: "inception_5b/double3x3_reduce/bn_noise"
  top: "inception_5b/double3x3_reduce/bn/sc_noise"
  name: "inception_5b/double3x3_reduce/bn/sc_noise"
  type: "Scale"
  param {
    lr_mult: 1
    decay_mult: 1
  }
  param {
    lr_mult: 1
    decay_mult: 1
  }
  scale_param {
    bias_term: true
  }
}
layer {
  bottom: "inception_5b/double3x3_reduce/bn/sc_noise"
  top: "inception_5b/double3x3_reduce/bn/sc_noise"
  name: "inception_5b/double3x3_reduce/bn/sc/relu_noise"
  type: "ReLU"
}
layer {
  bottom: "inception_5b/double3x3_reduce/bn/sc_noise"
  top: "inception_5b/double3x3a_noise"
  name: "inception_5b/double3x3a_noise"
  type: "Convolution"
  param {
    lr_mult: 1
    decay_mult: 1
  }
  convolution_param {
    num_output: 224
    pad: 1
    kernel_size: 3
    stride: 1
    weight_filler {
      type: "xavier"
    }
    bias_term: false
  }
}
layer {
  bottom: "inception_5b/double3x3a_noise"
  name: "inception_5b/double3x3a/bn_noise"
  top: "inception_5b/double3x3a/bn_noise"
  type: "BatchNorm"
  param {
    lr_mult: 1
    decay_mult: 1
  }
  param {
    lr_mult: 1
    decay_mult: 1
  }
  param {
    lr_mult: 1
    decay_mult: 1
  }
}
layer {
  bottom: "inception_5b/double3x3a/bn_noise"
  top: "inception_5b/double3x3a/bn/sc_noise"
  name: "inception_5b/double3x3a/bn/sc_noise"
  type: "Scale"
  param {
    lr_mult: 1
    decay_mult: 1
  }
  param {
    lr_mult: 1
    decay_mult: 1
  }
  scale_param {
    bias_term: true
  }
}
layer {
  bottom: "inception_5b/double3x3a/bn/sc_noise"
  top: "inception_5b/double3x3a/bn/sc_noise"
  name: "inception_5b/double3x3a/bn/sc/relu_noise"
  type: "ReLU"
}
layer {
  bottom: "inception_5b/double3x3a/bn/sc_noise"
  top: "inception_5b/double3x3b_noise"
  name: "inception_5b/double3x3b_noise"
  type: "Convolution"
  param {
    lr_mult: 1
    decay_mult: 1
  }
  convolution_param {
    num_output: 56
    pad: 1
    kernel_size: 3
    stride: 1
    weight_filler {
      type: "xavier"
    }
    bias_term: false
  }
}
layer {
  bottom: "inception_5b/double3x3b_noise"
  name: "inception_5b/double3x3b/bn_noise"
  top: "inception_5b/double3x3b/bn_noise"
  type: "BatchNorm"
  param {
    lr_mult: 1
    decay_mult: 1
  }
  param {
    lr_mult: 1
    decay_mult: 1
  }
  param {
    lr_mult: 1
    decay_mult: 1
  }
}
layer {
  bottom: "inception_5b/double3x3b/bn_noise"
  top: "inception_5b/double3x3b/bn/sc_noise"
  name: "inception_5b/double3x3b/bn/sc_noise"
  type: "Scale"
  param {
    lr_mult: 1
    decay_mult: 1
  }
  param {
    lr_mult: 1
    decay_mult: 1
  }
  scale_param {
    bias_term: true
  }
}
layer {
  bottom: "inception_5b/double3x3b/bn/sc_noise"
  top: "inception_5b/double3x3b/bn/sc_noise"
  name: "inception_5b/double3x3b/bn/sc/relu_noise"
  type: "ReLU"
}
layer {
  bottom: "inception_5a/output_noise"
  top: "inception_5b/pool_noise"
  name: "inception_5b/pool_noise"
  type: "Pooling"
  pooling_param {
    pool: MAX
    kernel_size: 3
    stride: 1
    pad: 1
  }
}
layer {
  bottom: "inception_5b/pool_noise"
  top: "inception_5b/pool_proj_noise"
  name: "inception_5b/pool_proj_noise"
  type: "Convolution"
  param {
    lr_mult: 1
    decay_mult: 1
  }
  convolution_param {
    num_output: 32
    pad: 0
    kernel_size: 1
    stride: 1
    weight_filler {
      type: "xavier"
    }
    bias_term: false
  }
}
layer {
  bottom: "inception_5b/pool_proj_noise"
  name: "inception_5b/pool_proj/bn_noise"
  top: "inception_5b/pool_proj/bn_noise"
  type: "BatchNorm"
  param {
    lr_mult: 1
    decay_mult: 1
  }
  param {
    lr_mult: 1
    decay_mult: 1
  }
  param {
    lr_mult: 1
    decay_mult: 1
  }
}
layer {
  bottom: "inception_5b/pool_proj/bn_noise"
  top: "inception_5b/pool_proj/bn/sc_noise"
  name: "inception_5b/pool_proj/bn/sc_noise"
  type: "Scale"
  param {
    lr_mult: 1
    decay_mult: 1
  }
  param {
    lr_mult: 1
    decay_mult: 1
  }
  scale_param {
    bias_term: true
  }
}
layer {
  bottom: "inception_5b/pool_proj/bn/sc_noise"
  top: "inception_5b/pool_proj/bn/sc_noise"
  name: "inception_5b/pool_proj/bn/sc/relu_noise"
  type: "ReLU"
}
layer {
  bottom: "inception_5b/1x1/bn/sc_noise"
  bottom: "inception_5b/double3x3b/bn/sc_noise"
  bottom: "inception_5b/pool_proj/bn/sc_noise"
  top: "inception_5b/output_noise"
  name: "inception_5b/output_noise"
  type: "Concat"
}
layer {
  bottom: "inception_5b/output_noise"
  top: "pool5/7x7_s1_noise"
  name: "pool5/7x7_s1_noise"
  type: "Pooling"
  pooling_param {
    pool: AVE
    kernel_size: 7
    stride: 1
  }
}
layer {
  name: "pool5/drop_7x7_s1_noise"
  type: "Dropout"
  bottom: "pool5/7x7_s1_noise"
  top: "pool5/drop_7x7_s1_noise"
  dropout_param {
    dropout_ratio: 0.5
  }
}

layer {
  bottom: "pool5/drop_7x7_s1_noise"
  top: "loss3_new/classifier_noise"
  name: "loss3_new/classifier_noise"
  type: "InnerProduct"
  param {
    lr_mult: 1
    decay_mult: 1
  }
  param {
    lr_mult: 2
    decay_mult: 0
  }
  inner_product_param {
    num_output: 128
    weight_filler {
      type: "xavier"
    }
    bias_filler {
      type: "constant"
      value: 0
    }
  }
}
layer {
  type: "ReLU"
  bottom: "loss3_new/classifier_noise"
  top: "loss3_new/classifier_noise"
  name: "relu_noise"
}
layer {
  type: "Dropout"
  bottom: "loss3_new/classifier_noise"
  top: "drop_noise"
  name: "drop_noise"
  dropout_param {
    dropout_ratio: 0.5
  }
}
layer {
  bottom: "drop_noise"
  top: "loss3_new_new/classifier_2_noise"
  name: "loss3_new_new/classifier_2_noise"
  type: "InnerProduct"
  param {
    lr_mult: 1
    decay_mult: 1
  }
  param {
    lr_mult: 2
    decay_mult: 0
  }
  inner_product_param {
    num_output: 11
    weight_filler {
      type: "xavier"
    }
    bias_filler {
      type: "constant"
      value: 0
    }
  }
}
layer {
  bottom: "loss3_new_new/classifier_2_noise"
  top: "softmax_noise"
  name: "softmax_noise"
  type: "Softmax"
}

#----------------------haze branch layers-----------------------
#----------------------haze branch layers-----------------------
#----------------------haze branch layers-----------------------
#----------------------haze branch layers-----------------------
#----------------------haze branch layers-----------------------

layer {
  bottom: "inception_4e/output_haze"
  top: "inception_5a/1x1_haze"
  name: "inception_5a/1x1_haze"
  type: "Convolution"
  include {
    phase: TRAIN
  }
  param {
    lr_mult: 1
    decay_mult: 1
  }
  convolution_param {
    num_output: 352
    pad: 0
    kernel_size: 1
    stride: 1
    weight_filler {
      type: "xavier"
    }
    bias_term: false
  }
}
layer {
  bottom: "inception_4e/output"
  top: "inception_5a/1x1_haze"
  name: "inception_5a/1x1_haze"
  type: "Convolution"
  include {
    phase: TEST
  }
  param {
    lr_mult: 1
    decay_mult: 1
  }
  convolution_param {
    num_output: 352
    pad: 0
    kernel_size: 1
    stride: 1
    weight_filler {
      type: "xavier"
    }
    bias_term: false
  }
}
layer {
  bottom: "inception_5a/1x1_haze"
  name: "inception_5a/1x1/bn_haze"
  top: "inception_5a/1x1/bn_haze"
  type: "BatchNorm"
  param {
    lr_mult: 1
    decay_mult: 1
  }
  param {
    lr_mult: 1
    decay_mult: 1
  }
  param {
    lr_mult: 1
    decay_mult: 1
  }
}
layer {
  bottom: "inception_5a/1x1/bn_haze"
  top: "inception_5a/1x1/bn/sc_haze"
  name: "inception_5a/1x1/bn/sc_haze"
  type: "Scale"
  param {
    lr_mult: 1
    decay_mult: 1
  }
  param {
    lr_mult: 1
    decay_mult: 1
  }
  scale_param {
    bias_term: true
  }
}
layer {
  bottom: "inception_5a/1x1/bn/sc_haze"
  top: "inception_5a/1x1/bn/sc_haze"
  name: "inception_5a/1x1/bn/sc/relu_haze"
  type: "ReLU"
}
layer {
  bottom: "inception_4e/output_haze"
  top: "inception_5a/3x3_reduce_haze"
  name: "inception_5a/3x3_reduce_haze"
  type: "Convolution"
  include {
    phase: TRAIN
  }
  param {
    lr_mult: 1
    decay_mult: 1
  }
  convolution_param {
    num_output: 192
    pad: 0
    kernel_size: 1
    stride: 1
    weight_filler {
      type: "xavier"
    }
    bias_term: false
  }
}
layer {
  bottom: "inception_4e/output"
  top: "inception_5a/3x3_reduce_haze"
  name: "inception_5a/3x3_reduce_haze"
  type: "Convolution"
  include {
    phase: TEST
  }
  param {
    lr_mult: 1
    decay_mult: 1
  }
  convolution_param {
    num_output: 192
    pad: 0
    kernel_size: 1
    stride: 1
    weight_filler {
      type: "xavier"
    }
    bias_term: false
  }
}
layer {
  bottom: "inception_5a/3x3_reduce_haze"
  name: "inception_5a/3x3_reduce/bn_haze"
  top: "inception_5a/3x3_reduce/bn_haze"
  type: "BatchNorm"
  param {
    lr_mult: 1
    decay_mult: 1
  }
  param {
    lr_mult: 1
    decay_mult: 1
  }
  param {
    lr_mult: 1
    decay_mult: 1
  }
}
layer {
  bottom: "inception_5a/3x3_reduce/bn_haze"
  top: "inception_5a/3x3_reduce/bn/sc_haze"
  name: "inception_5a/3x3_reduce/bn/sc_haze"
  type: "Scale"
  param {
    lr_mult: 1
    decay_mult: 1
  }
  param {
    lr_mult: 1
    decay_mult: 1
  }
  scale_param {
    bias_term: true
  }
}
layer {
  bottom: "inception_5a/3x3_reduce/bn/sc_haze"
  top: "inception_5a/3x3_reduce/bn/sc_haze"
  name: "inception_5a/3x3_reduce/bn/sc/relu_haze"
  type: "ReLU"
}
layer {
  bottom: "inception_5a/3x3_reduce/bn/sc_haze"
  top: "inception_5a/3x3_haze"
  name: "inception_5a/3x3_haze"
  type: "Convolution"
  param {
    lr_mult: 1
    decay_mult: 1
  }
  convolution_param {
    num_output: 320
    pad: 1
    kernel_size: 3
    stride: 1
    weight_filler {
      type: "xavier"
    }
    bias_term: false
  }
}
layer {
  bottom: "inception_5a/3x3_haze"
  name: "inception_5a/3x3/bn_haze"
  top: "inception_5a/3x3/bn_haze"
  type: "BatchNorm"
  param {
    lr_mult: 1
    decay_mult: 1
  }
  param {
    lr_mult: 1
    decay_mult: 1
  }
  param {
    lr_mult: 1
    decay_mult: 1
  }
}
layer {
  bottom: "inception_5a/3x3/bn_haze"
  top: "inception_5a/3x3/bn/sc_haze"
  name: "inception_5a/3x3/bn/sc_haze"
  type: "Scale"
  param {
    lr_mult: 1
    decay_mult: 1
  }
  param {
    lr_mult: 1
    decay_mult: 1
  }
  scale_param {
    bias_term: true
  }
}
layer {
  bottom: "inception_5a/3x3/bn/sc_haze"
  top: "inception_5a/3x3/bn/sc_haze"
  name: "inception_5a/3x3/bn/sc/relu_haze"
  type: "ReLU"
}
layer {
  bottom: "inception_4e/output_haze"
  top: "inception_5a/double3x3_reduce_haze"
  name: "inception_5a/double3x3_reduce_haze"
  type: "Convolution"
  include {
    phase: TRAIN
  }
  param {
    lr_mult: 1
    decay_mult: 1
  }
  convolution_param {
    num_output: 160
    pad: 0
    kernel_size: 1
    stride: 1
    weight_filler {
      type: "xavier"
    }
    bias_term: false
  }
}
layer {
  bottom: "inception_4e/output"
  top: "inception_5a/double3x3_reduce_haze"
  name: "inception_5a/double3x3_reduce_haze"
  type: "Convolution"
  include {
    phase: TEST
  }
  param {
    lr_mult: 1
    decay_mult: 1
  }
  convolution_param {
    num_output: 160
    pad: 0
    kernel_size: 1
    stride: 1
    weight_filler {
      type: "xavier"
    }
    bias_term: false
  }
}
layer {
  bottom: "inception_5a/double3x3_reduce_haze"
  name: "inception_5a/double3x3_reduce/bn_haze"
  top: "inception_5a/double3x3_reduce/bn_haze"
  type: "BatchNorm"
  param {
    lr_mult: 1
    decay_mult: 1
  }
  param {
    lr_mult: 1
    decay_mult: 1
  }
  param {
    lr_mult: 1
    decay_mult: 1
  }
}
layer {
  bottom: "inception_5a/double3x3_reduce/bn_haze"
  top: "inception_5a/double3x3_reduce/bn/sc_haze"
  name: "inception_5a/double3x3_reduce/bn/sc_haze"
  type: "Scale"
  param {
    lr_mult: 1
    decay_mult: 1
  }
  param {
    lr_mult: 1
    decay_mult: 1
  }
  scale_param {
    bias_term: true
  }
}
layer {
  bottom: "inception_5a/double3x3_reduce/bn/sc_haze"
  top: "inception_5a/double3x3_reduce/bn/sc_haze"
  name: "inception_5a/double3x3_reduce/bn/sc/relu_haze"
  type: "ReLU"
}
layer {
  bottom: "inception_5a/double3x3_reduce/bn/sc_haze"
  top: "inception_5a/double3x3a_haze"
  name: "inception_5a/double3x3a_haze"
  type: "Convolution"
  param {
    lr_mult: 1
    decay_mult: 1
  }
  convolution_param {
    num_output: 224
    pad: 1
    kernel_size: 3
    stride: 1
    weight_filler {
      type: "xavier"
    }
    bias_term: false
  }
}
layer {
  bottom: "inception_5a/double3x3a_haze"
  name: "inception_5a/double3x3a/bn_haze"
  top: "inception_5a/double3x3a/bn_haze"
  type: "BatchNorm"
  param {
    lr_mult: 1
    decay_mult: 1
  }
  param {
    lr_mult: 1
    decay_mult: 1
  }
  param {
    lr_mult: 1
    decay_mult: 1
  }
}
layer {
  bottom: "inception_5a/double3x3a/bn_haze"
  top: "inception_5a/double3x3a/bn/sc_haze"
  name: "inception_5a/double3x3a/bn/sc_haze"
  type: "Scale"
  param {
    lr_mult: 1
    decay_mult: 1
  }
  param {
    lr_mult: 1
    decay_mult: 1
  }
  scale_param {
    bias_term: true
  }
}
layer {
  bottom: "inception_5a/double3x3a/bn/sc_haze"
  top: "inception_5a/double3x3a/bn/sc_haze"
  name: "inception_5a/double3x3a/bn/sc/relu_haze"
  type: "ReLU"
}
layer {
  bottom: "inception_5a/double3x3a/bn/sc_haze"
  top: "inception_5a/double3x3b_haze"
  name: "inception_5a/double3x3b_haze"
  type: "Convolution"
  param {
    lr_mult: 1
    decay_mult: 1
  }
  convolution_param {
    num_output: 224
    pad: 1
    kernel_size: 3
    stride: 1
    weight_filler {
      type: "xavier"
    }
    bias_term: false
  }
}
layer {
  bottom: "inception_5a/double3x3b_haze"
  name: "inception_5a/double3x3b/bn_haze"
  top: "inception_5a/double3x3b/bn_haze"
  type: "BatchNorm"
  param {
    lr_mult: 1
    decay_mult: 1
  }
  param {
    lr_mult: 1
    decay_mult: 1
  }
  param {
    lr_mult: 1
    decay_mult: 1
  }
}
layer {
  bottom: "inception_5a/double3x3b/bn_haze"
  top: "inception_5a/double3x3b/bn/sc_haze"
  name: "inception_5a/double3x3b/bn/sc_haze"
  type: "Scale"
  param {
    lr_mult: 1
    decay_mult: 1
  }
  param {
    lr_mult: 1
    decay_mult: 1
  }
  scale_param {
    bias_term: true
  }
}
layer {
  bottom: "inception_5a/double3x3b/bn/sc_haze"
  top: "inception_5a/double3x3b/bn/sc_haze"
  name: "inception_5a/double3x3b/bn/sc/relu_haze"
  type: "ReLU"
}
layer {
  bottom: "inception_4e/output_haze"
  top: "inception_5a/pool_haze"
  name: "inception_5a/pool_haze"
  type: "Pooling"
  include {
    phase: TRAIN
  }
  pooling_param {
    pool: AVE
    kernel_size: 3
    stride: 1
    pad: 1
  }
}
layer {
  bottom: "inception_4e/output"
  top: "inception_5a/pool_haze"
  name: "inception_5a/pool_haze"
  type: "Pooling"
  include {
    phase: TEST
  }
  pooling_param {
    pool: AVE
    kernel_size: 3
    stride: 1
    pad: 1
  }
}
layer {
  bottom: "inception_5a/pool_haze"
  top: "inception_5a/pool_proj_haze"
  name: "inception_5a/pool_proj_haze"
  type: "Convolution"
  param {
    lr_mult: 1
    decay_mult: 1
  }
  convolution_param {
    num_output: 128
    pad: 0
    kernel_size: 1
    stride: 1
    weight_filler {
      type: "xavier"
    }
    bias_term: false
  }
}
layer {
  bottom: "inception_5a/pool_proj_haze"
  name: "inception_5a/pool_proj/bn_haze"
  top: "inception_5a/pool_proj/bn_haze"
  type: "BatchNorm"
  param {
    lr_mult: 1
    decay_mult: 1
  }
  param {
    lr_mult: 1
    decay_mult: 1
  }
  param {
    lr_mult: 1
    decay_mult: 1
  }
}
layer {
  bottom: "inception_5a/pool_proj/bn_haze"
  top: "inception_5a/pool_proj/bn/sc_haze"
  name: "inception_5a/pool_proj/bn/sc_haze"
  type: "Scale"
  param {
    lr_mult: 1
    decay_mult: 1
  }
  param {
    lr_mult: 1
    decay_mult: 1
  }
  scale_param {
    bias_term: true
  }
}
layer {
  bottom: "inception_5a/pool_proj/bn/sc_haze"
  top: "inception_5a/pool_proj/bn/sc_haze"
  name: "inception_5a/pool_proj/bn/sc/relu_haze"
  type: "ReLU"
}
layer {
  bottom: "inception_5a/1x1/bn/sc_haze"
  bottom: "inception_5a/3x3/bn/sc_haze"
  bottom: "inception_5a/double3x3b/bn/sc_haze"
  bottom: "inception_5a/pool_proj/bn/sc_haze"
  top: "inception_5a/output_haze"
  name: "inception_5a/output_haze"
  type: "Concat"
}
layer {
  bottom: "inception_5a/output_haze"
  top: "inception_5b/1x1_haze"
  name: "inception_5b/1x1_haze"
  type: "Convolution"
  param {
    lr_mult: 1
    decay_mult: 1
  }
  convolution_param {
    num_output: 88
    pad: 0
    kernel_size: 1
    stride: 1
    weight_filler {
      type: "xavier"
    }
    bias_term: false
  }
}
layer {
  bottom: "inception_5b/1x1_haze"
  name: "inception_5b/1x1/bn_haze"
  top: "inception_5b/1x1/bn_haze"
  type: "BatchNorm"
  param {
    lr_mult: 1
    decay_mult: 1
  }
  param {
    lr_mult: 1
    decay_mult: 1
  }
  param {
    lr_mult: 1
    decay_mult: 1
  }
}
layer {
  bottom: "inception_5b/1x1/bn_haze"
  top: "inception_5b/1x1/bn/sc_haze"
  name: "inception_5b/1x1/bn/sc_haze"
  type: "Scale"
  param {
    lr_mult: 1
    decay_mult: 1
  }
  param {
    lr_mult: 1
    decay_mult: 1
  }
  scale_param {
    bias_term: true
  }
}
layer {
  bottom: "inception_5b/1x1/bn/sc_haze"
  top: "inception_5b/1x1/bn/sc_haze"
  name: "inception_5b/1x1/bn/sc/relu_haze"
  type: "ReLU"
}
layer {
  bottom: "inception_5a/output_haze"
  top: "inception_5b/double3x3_reduce_haze"
  name: "inception_5b/double3x3_reduce_haze"
  type: "Convolution"
  param {
    lr_mult: 1
    decay_mult: 1
  }
  convolution_param {
    num_output: 192
    pad: 0
    kernel_size: 1
    stride: 1
    weight_filler {
      type: "xavier"
    }
    bias_term: false
  }
}
layer {
  bottom: "inception_5b/double3x3_reduce_haze"
  name: "inception_5b/double3x3_reduce/bn_haze"
  top: "inception_5b/double3x3_reduce/bn_haze"
  type: "BatchNorm"
  param {
    lr_mult: 1
    decay_mult: 1
  }
  param {
    lr_mult: 1
    decay_mult: 1
  }
  param {
    lr_mult: 1
    decay_mult: 1
  }
}
layer {
  bottom: "inception_5b/double3x3_reduce/bn_haze"
  top: "inception_5b/double3x3_reduce/bn/sc_haze"
  name: "inception_5b/double3x3_reduce/bn/sc_haze"
  type: "Scale"
  param {
    lr_mult: 1
    decay_mult: 1
  }
  param {
    lr_mult: 1
    decay_mult: 1
  }
  scale_param {
    bias_term: true
  }
}
layer {
  bottom: "inception_5b/double3x3_reduce/bn/sc_haze"
  top: "inception_5b/double3x3_reduce/bn/sc_haze"
  name: "inception_5b/double3x3_reduce/bn/sc/relu_haze"
  type: "ReLU"
}
layer {
  bottom: "inception_5b/double3x3_reduce/bn/sc_haze"
  top: "inception_5b/double3x3a_haze"
  name: "inception_5b/double3x3a_haze"
  type: "Convolution"
  param {
    lr_mult: 1
    decay_mult: 1
  }
  convolution_param {
    num_output: 224
    pad: 1
    kernel_size: 3
    stride: 1
    weight_filler {
      type: "xavier"
    }
    bias_term: false
  }
}
layer {
  bottom: "inception_5b/double3x3a_haze"
  name: "inception_5b/double3x3a/bn_haze"
  top: "inception_5b/double3x3a/bn_haze"
  type: "BatchNorm"
  param {
    lr_mult: 1
    decay_mult: 1
  }
  param {
    lr_mult: 1
    decay_mult: 1
  }
  param {
    lr_mult: 1
    decay_mult: 1
  }
}
layer {
  bottom: "inception_5b/double3x3a/bn_haze"
  top: "inception_5b/double3x3a/bn/sc_haze"
  name: "inception_5b/double3x3a/bn/sc_haze"
  type: "Scale"
  param {
    lr_mult: 1
    decay_mult: 1
  }
  param {
    lr_mult: 1
    decay_mult: 1
  }
  scale_param {
    bias_term: true
  }
}
layer {
  bottom: "inception_5b/double3x3a/bn/sc_haze"
  top: "inception_5b/double3x3a/bn/sc_haze"
  name: "inception_5b/double3x3a/bn/sc/relu_haze"
  type: "ReLU"
}
layer {
  bottom: "inception_5b/double3x3a/bn/sc_haze"
  top: "inception_5b/double3x3b_haze"
  name: "inception_5b/double3x3b_haze"
  type: "Convolution"
  param {
    lr_mult: 1
    decay_mult: 1
  }
  convolution_param {
    num_output: 56
    pad: 1
    kernel_size: 3
    stride: 1
    weight_filler {
      type: "xavier"
    }
    bias_term: false
  }
}
layer {
  bottom: "inception_5b/double3x3b_haze"
  name: "inception_5b/double3x3b/bn_haze"
  top: "inception_5b/double3x3b/bn_haze"
  type: "BatchNorm"
  param {
    lr_mult: 1
    decay_mult: 1
  }
  param {
    lr_mult: 1
    decay_mult: 1
  }
  param {
    lr_mult: 1
    decay_mult: 1
  }
}
layer {
  bottom: "inception_5b/double3x3b/bn_haze"
  top: "inception_5b/double3x3b/bn/sc_haze"
  name: "inception_5b/double3x3b/bn/sc_haze"
  type: "Scale"
  param {
    lr_mult: 1
    decay_mult: 1
  }
  param {
    lr_mult: 1
    decay_mult: 1
  }
  scale_param {
    bias_term: true
  }
}
layer {
  bottom: "inception_5b/double3x3b/bn/sc_haze"
  top: "inception_5b/double3x3b/bn/sc_haze"
  name: "inception_5b/double3x3b/bn/sc/relu_haze"
  type: "ReLU"
}
layer {
  bottom: "inception_5a/output_haze"
  top: "inception_5b/pool_haze"
  name: "inception_5b/pool_haze"
  type: "Pooling"
  pooling_param {
    pool: MAX
    kernel_size: 3
    stride: 1
    pad: 1
  }
}
layer {
  bottom: "inception_5b/pool_haze"
  top: "inception_5b/pool_proj_haze"
  name: "inception_5b/pool_proj_haze"
  type: "Convolution"
  param {
    lr_mult: 1
    decay_mult: 1
  }
  convolution_param {
    num_output: 32
    pad: 0
    kernel_size: 1
    stride: 1
    weight_filler {
      type: "xavier"
    }
    bias_term: false
  }
}
layer {
  bottom: "inception_5b/pool_proj_haze"
  name: "inception_5b/pool_proj/bn_haze"
  top: "inception_5b/pool_proj/bn_haze"
  type: "BatchNorm"
  param {
    lr_mult: 1
    decay_mult: 1
  }
  param {
    lr_mult: 1
    decay_mult: 1
  }
  param {
    lr_mult: 1
    decay_mult: 1
  }
}
layer {
  bottom: "inception_5b/pool_proj/bn_haze"
  top: "inception_5b/pool_proj/bn/sc_haze"
  name: "inception_5b/pool_proj/bn/sc_haze"
  type: "Scale"
  param {
    lr_mult: 1
    decay_mult: 1
  }
  param {
    lr_mult: 1
    decay_mult: 1
  }
  scale_param {
    bias_term: true
  }
}
layer {
  bottom: "inception_5b/pool_proj/bn/sc_haze"
  top: "inception_5b/pool_proj/bn/sc_haze"
  name: "inception_5b/pool_proj/bn/sc/relu_haze"
  type: "ReLU"
}
layer {
  bottom: "inception_5b/1x1/bn/sc_haze"
  bottom: "inception_5b/double3x3b/bn/sc_haze"
  bottom: "inception_5b/pool_proj/bn/sc_haze"
  top: "inception_5b/output_haze"
  name: "inception_5b/output_haze"
  type: "Concat"
}
layer {
  bottom: "inception_5b/output_haze"
  top: "pool5/7x7_s1_haze"
  name: "pool5/7x7_s1_haze"
  type: "Pooling"
  pooling_param {
    pool: AVE
    kernel_size: 7
    stride: 1
  }
}
layer {
  name: "pool5/drop_7x7_s1_haze"
  type: "Dropout"
  bottom: "pool5/7x7_s1_haze"
  top: "pool5/drop_7x7_s1_haze"
  dropout_param {
    dropout_ratio: 0.5
  }
}

layer {
  bottom: "pool5/drop_7x7_s1_haze"
  top: "loss3_new/classifier_haze"
  name: "loss3_new/classifier_haze"
  type: "InnerProduct"
  param {
    lr_mult: 1
    decay_mult: 1
  }
  param {
    lr_mult: 2
    decay_mult: 0
  }
  inner_product_param {
    num_output: 128
    weight_filler {
      type: "xavier"
    }
    bias_filler {
      type: "constant"
      value: 0
    }
  }
}
layer {
  type: "ReLU"
  bottom: "loss3_new/classifier_haze"
  top: "loss3_new/classifier_haze"
  name: "relu_haze"
}
layer {
  type: "Dropout"
  bottom: "loss3_new/classifier_haze"
  top: "drop_haze"
  name: "drop_haze"
  dropout_param {
    dropout_ratio: 0.5
  }
}
layer {
  bottom: "drop_haze"
  top: "loss3_new_new/classifier_2_haze"
  name: "loss3_new_new/classifier_2_haze"
  type: "InnerProduct"
  param {
    lr_mult: 1
    decay_mult: 1
  }
  param {
    lr_mult: 2
    decay_mult: 0
  }
  inner_product_param {
    num_output: 11
    weight_filler {
      type: "xavier"
    }
    bias_filler {
      type: "constant"
      value: 0
    }
  }
}
layer {
  bottom: "loss3_new_new/classifier_2_haze"
  top: "softmax_haze"
  name: "softmax_haze"
  type: "Softmax"
}

#----------------------undesiredBlur branch layers-----------------------
#----------------------undesiredBlur branch layers-----------------------
#----------------------undesiredBlur branch layers-----------------------
#----------------------undesiredBlur branch layers-----------------------
#----------------------undesiredBlur branch layers-----------------------

layer {
  bottom: "inception_4e/output_undesiredBlur"
  top: "inception_5a/1x1_undesiredBlur"
  name: "inception_5a/1x1_undesiredBlur"
  type: "Convolution"
  include {
    phase: TRAIN
  }
  param {
    lr_mult: 1
    decay_mult: 1
  }
  convolution_param {
    num_output: 352
    pad: 0
    kernel_size: 1
    stride: 1
    weight_filler {
      type: "xavier"
    }
    bias_term: false
  }
}
layer {
  bottom: "inception_4e/output"
  top: "inception_5a/1x1_undesiredBlur"
  name: "inception_5a/1x1_undesiredBlur"
  type: "Convolution"
  include {
    phase: TEST
  }
  param {
    lr_mult: 1
    decay_mult: 1
  }
  convolution_param {
    num_output: 352
    pad: 0
    kernel_size: 1
    stride: 1
    weight_filler {
      type: "xavier"
    }
    bias_term: false
  }
}
layer {
  bottom: "inception_5a/1x1_undesiredBlur"
  name: "inception_5a/1x1/bn_undesiredBlur"
  top: "inception_5a/1x1/bn_undesiredBlur"
  type: "BatchNorm"
  param {
    lr_mult: 1
    decay_mult: 1
  }
  param {
    lr_mult: 1
    decay_mult: 1
  }
  param {
    lr_mult: 1
    decay_mult: 1
  }
}
layer {
  bottom: "inception_5a/1x1/bn_undesiredBlur"
  top: "inception_5a/1x1/bn/sc_undesiredBlur"
  name: "inception_5a/1x1/bn/sc_undesiredBlur"
  type: "Scale"
  param {
    lr_mult: 1
    decay_mult: 1
  }
  param {
    lr_mult: 1
    decay_mult: 1
  }
  scale_param {
    bias_term: true
  }
}
layer {
  bottom: "inception_5a/1x1/bn/sc_undesiredBlur"
  top: "inception_5a/1x1/bn/sc_undesiredBlur"
  name: "inception_5a/1x1/bn/sc/relu_undesiredBlur"
  type: "ReLU"
}
layer {
  bottom: "inception_4e/output_undesiredBlur"
  top: "inception_5a/3x3_reduce_undesiredBlur"
  name: "inception_5a/3x3_reduce_undesiredBlur"
  type: "Convolution"
  include {
    phase: TRAIN
  }
  param {
    lr_mult: 1
    decay_mult: 1
  }
  convolution_param {
    num_output: 192
    pad: 0
    kernel_size: 1
    stride: 1
    weight_filler {
      type: "xavier"
    }
    bias_term: false
  }
}
layer {
  bottom: "inception_4e/output"
  top: "inception_5a/3x3_reduce_undesiredBlur"
  name: "inception_5a/3x3_reduce_undesiredBlur"
  type: "Convolution"
  include {
    phase: TEST
  }
  param {
    lr_mult: 1
    decay_mult: 1
  }
  convolution_param {
    num_output: 192
    pad: 0
    kernel_size: 1
    stride: 1
    weight_filler {
      type: "xavier"
    }
    bias_term: false
  }
}
layer {
  bottom: "inception_5a/3x3_reduce_undesiredBlur"
  name: "inception_5a/3x3_reduce/bn_undesiredBlur"
  top: "inception_5a/3x3_reduce/bn_undesiredBlur"
  type: "BatchNorm"
  param {
    lr_mult: 1
    decay_mult: 1
  }
  param {
    lr_mult: 1
    decay_mult: 1
  }
  param {
    lr_mult: 1
    decay_mult: 1
  }
}
layer {
  bottom: "inception_5a/3x3_reduce/bn_undesiredBlur"
  top: "inception_5a/3x3_reduce/bn/sc_undesiredBlur"
  name: "inception_5a/3x3_reduce/bn/sc_undesiredBlur"
  type: "Scale"
  param {
    lr_mult: 1
    decay_mult: 1
  }
  param {
    lr_mult: 1
    decay_mult: 1
  }
  scale_param {
    bias_term: true
  }
}
layer {
  bottom: "inception_5a/3x3_reduce/bn/sc_undesiredBlur"
  top: "inception_5a/3x3_reduce/bn/sc_undesiredBlur"
  name: "inception_5a/3x3_reduce/bn/sc/relu_undesiredBlur"
  type: "ReLU"
}
layer {
  bottom: "inception_5a/3x3_reduce/bn/sc_undesiredBlur"
  top: "inception_5a/3x3_undesiredBlur"
  name: "inception_5a/3x3_undesiredBlur"
  type: "Convolution"
  param {
    lr_mult: 1
    decay_mult: 1
  }
  convolution_param {
    num_output: 320
    pad: 1
    kernel_size: 3
    stride: 1
    weight_filler {
      type: "xavier"
    }
    bias_term: false
  }
}
layer {
  bottom: "inception_5a/3x3_undesiredBlur"
  name: "inception_5a/3x3/bn_undesiredBlur"
  top: "inception_5a/3x3/bn_undesiredBlur"
  type: "BatchNorm"
  param {
    lr_mult: 1
    decay_mult: 1
  }
  param {
    lr_mult: 1
    decay_mult: 1
  }
  param {
    lr_mult: 1
    decay_mult: 1
  }
}
layer {
  bottom: "inception_5a/3x3/bn_undesiredBlur"
  top: "inception_5a/3x3/bn/sc_undesiredBlur"
  name: "inception_5a/3x3/bn/sc_undesiredBlur"
  type: "Scale"
  param {
    lr_mult: 1
    decay_mult: 1
  }
  param {
    lr_mult: 1
    decay_mult: 1
  }
  scale_param {
    bias_term: true
  }
}
layer {
  bottom: "inception_5a/3x3/bn/sc_undesiredBlur"
  top: "inception_5a/3x3/bn/sc_undesiredBlur"
  name: "inception_5a/3x3/bn/sc/relu_undesiredBlur"
  type: "ReLU"
}
layer {
  bottom: "inception_4e/output_undesiredBlur"
  top: "inception_5a/double3x3_reduce_undesiredBlur"
  name: "inception_5a/double3x3_reduce_undesiredBlur"
  type: "Convolution"
  include {
    phase: TRAIN
  }
  param {
    lr_mult: 1
    decay_mult: 1
  }
  convolution_param {
    num_output: 160
    pad: 0
    kernel_size: 1
    stride: 1
    weight_filler {
      type: "xavier"
    }
    bias_term: false
  }
}
layer {
  bottom: "inception_4e/output"
  top: "inception_5a/double3x3_reduce_undesiredBlur"
  name: "inception_5a/double3x3_reduce_undesiredBlur"
  type: "Convolution"
  include {
    phase: TEST
  }
  param {
    lr_mult: 1
    decay_mult: 1
  }
  convolution_param {
    num_output: 160
    pad: 0
    kernel_size: 1
    stride: 1
    weight_filler {
      type: "xavier"
    }
    bias_term: false
  }
}
layer {
  bottom: "inception_5a/double3x3_reduce_undesiredBlur"
  name: "inception_5a/double3x3_reduce/bn_undesiredBlur"
  top: "inception_5a/double3x3_reduce/bn_undesiredBlur"
  type: "BatchNorm"
  param {
    lr_mult: 1
    decay_mult: 1
  }
  param {
    lr_mult: 1
    decay_mult: 1
  }
  param {
    lr_mult: 1
    decay_mult: 1
  }
}
layer {
  bottom: "inception_5a/double3x3_reduce/bn_undesiredBlur"
  top: "inception_5a/double3x3_reduce/bn/sc_undesiredBlur"
  name: "inception_5a/double3x3_reduce/bn/sc_undesiredBlur"
  type: "Scale"
  param {
    lr_mult: 1
    decay_mult: 1
  }
  param {
    lr_mult: 1
    decay_mult: 1
  }
  scale_param {
    bias_term: true
  }
}
layer {
  bottom: "inception_5a/double3x3_reduce/bn/sc_undesiredBlur"
  top: "inception_5a/double3x3_reduce/bn/sc_undesiredBlur"
  name: "inception_5a/double3x3_reduce/bn/sc/relu_undesiredBlur"
  type: "ReLU"
}
layer {
  bottom: "inception_5a/double3x3_reduce/bn/sc_undesiredBlur"
  top: "inception_5a/double3x3a_undesiredBlur"
  name: "inception_5a/double3x3a_undesiredBlur"
  type: "Convolution"
  param {
    lr_mult: 1
    decay_mult: 1
  }
  convolution_param {
    num_output: 224
    pad: 1
    kernel_size: 3
    stride: 1
    weight_filler {
      type: "xavier"
    }
    bias_term: false
  }
}
layer {
  bottom: "inception_5a/double3x3a_undesiredBlur"
  name: "inception_5a/double3x3a/bn_undesiredBlur"
  top: "inception_5a/double3x3a/bn_undesiredBlur"
  type: "BatchNorm"
  param {
    lr_mult: 1
    decay_mult: 1
  }
  param {
    lr_mult: 1
    decay_mult: 1
  }
  param {
    lr_mult: 1
    decay_mult: 1
  }
}
layer {
  bottom: "inception_5a/double3x3a/bn_undesiredBlur"
  top: "inception_5a/double3x3a/bn/sc_undesiredBlur"
  name: "inception_5a/double3x3a/bn/sc_undesiredBlur"
  type: "Scale"
  param {
    lr_mult: 1
    decay_mult: 1
  }
  param {
    lr_mult: 1
    decay_mult: 1
  }
  scale_param {
    bias_term: true
  }
}
layer {
  bottom: "inception_5a/double3x3a/bn/sc_undesiredBlur"
  top: "inception_5a/double3x3a/bn/sc_undesiredBlur"
  name: "inception_5a/double3x3a/bn/sc/relu_undesiredBlur"
  type: "ReLU"
}
layer {
  bottom: "inception_5a/double3x3a/bn/sc_undesiredBlur"
  top: "inception_5a/double3x3b_undesiredBlur"
  name: "inception_5a/double3x3b_undesiredBlur"
  type: "Convolution"
  param {
    lr_mult: 1
    decay_mult: 1
  }
  convolution_param {
    num_output: 224
    pad: 1
    kernel_size: 3
    stride: 1
    weight_filler {
      type: "xavier"
    }
    bias_term: false
  }
}
layer {
  bottom: "inception_5a/double3x3b_undesiredBlur"
  name: "inception_5a/double3x3b/bn_undesiredBlur"
  top: "inception_5a/double3x3b/bn_undesiredBlur"
  type: "BatchNorm"
  param {
    lr_mult: 1
    decay_mult: 1
  }
  param {
    lr_mult: 1
    decay_mult: 1
  }
  param {
    lr_mult: 1
    decay_mult: 1
  }
}
layer {
  bottom: "inception_5a/double3x3b/bn_undesiredBlur"
  top: "inception_5a/double3x3b/bn/sc_undesiredBlur"
  name: "inception_5a/double3x3b/bn/sc_undesiredBlur"
  type: "Scale"
  param {
    lr_mult: 1
    decay_mult: 1
  }
  param {
    lr_mult: 1
    decay_mult: 1
  }
  scale_param {
    bias_term: true
  }
}
layer {
  bottom: "inception_5a/double3x3b/bn/sc_undesiredBlur"
  top: "inception_5a/double3x3b/bn/sc_undesiredBlur"
  name: "inception_5a/double3x3b/bn/sc/relu_undesiredBlur"
  type: "ReLU"
}
layer {
  bottom: "inception_4e/output_undesiredBlur"
  top: "inception_5a/pool_undesiredBlur"
  name: "inception_5a/pool_undesiredBlur"
  type: "Pooling"
  include {
    phase: TRAIN
  }
  pooling_param {
    pool: AVE
    kernel_size: 3
    stride: 1
    pad: 1
  }
}
layer {
  bottom: "inception_4e/output"
  top: "inception_5a/pool_undesiredBlur"
  name: "inception_5a/pool_undesiredBlur"
  type: "Pooling"
  include {
    phase: TEST
  }
  pooling_param {
    pool: AVE
    kernel_size: 3
    stride: 1
    pad: 1
  }
}
layer {
  bottom: "inception_5a/pool_undesiredBlur"
  top: "inception_5a/pool_proj_undesiredBlur"
  name: "inception_5a/pool_proj_undesiredBlur"
  type: "Convolution"
  param {
    lr_mult: 1
    decay_mult: 1
  }
  convolution_param {
    num_output: 128
    pad: 0
    kernel_size: 1
    stride: 1
    weight_filler {
      type: "xavier"
    }
    bias_term: false
  }
}
layer {
  bottom: "inception_5a/pool_proj_undesiredBlur"
  name: "inception_5a/pool_proj/bn_undesiredBlur"
  top: "inception_5a/pool_proj/bn_undesiredBlur"
  type: "BatchNorm"
  param {
    lr_mult: 1
    decay_mult: 1
  }
  param {
    lr_mult: 1
    decay_mult: 1
  }
  param {
    lr_mult: 1
    decay_mult: 1
  }
}
layer {
  bottom: "inception_5a/pool_proj/bn_undesiredBlur"
  top: "inception_5a/pool_proj/bn/sc_undesiredBlur"
  name: "inception_5a/pool_proj/bn/sc_undesiredBlur"
  type: "Scale"
  param {
    lr_mult: 1
    decay_mult: 1
  }
  param {
    lr_mult: 1
    decay_mult: 1
  }
  scale_param {
    bias_term: true
  }
}
layer {
  bottom: "inception_5a/pool_proj/bn/sc_undesiredBlur"
  top: "inception_5a/pool_proj/bn/sc_undesiredBlur"
  name: "inception_5a/pool_proj/bn/sc/relu_undesiredBlur"
  type: "ReLU"
}
layer {
  bottom: "inception_5a/1x1/bn/sc_undesiredBlur"
  bottom: "inception_5a/3x3/bn/sc_undesiredBlur"
  bottom: "inception_5a/double3x3b/bn/sc_undesiredBlur"
  bottom: "inception_5a/pool_proj/bn/sc_undesiredBlur"
  top: "inception_5a/output_undesiredBlur"
  name: "inception_5a/output_undesiredBlur"
  type: "Concat"
}
layer {
  bottom: "inception_5a/output_undesiredBlur"
  top: "inception_5b/1x1_undesiredBlur"
  name: "inception_5b/1x1_undesiredBlur"
  type: "Convolution"
  param {
    lr_mult: 1
    decay_mult: 1
  }
  convolution_param {
    num_output: 88
    pad: 0
    kernel_size: 1
    stride: 1
    weight_filler {
      type: "xavier"
    }
    bias_term: false
  }
}
layer {
  bottom: "inception_5b/1x1_undesiredBlur"
  name: "inception_5b/1x1/bn_undesiredBlur"
  top: "inception_5b/1x1/bn_undesiredBlur"
  type: "BatchNorm"
  param {
    lr_mult: 1
    decay_mult: 1
  }
  param {
    lr_mult: 1
    decay_mult: 1
  }
  param {
    lr_mult: 1
    decay_mult: 1
  }
}
layer {
  bottom: "inception_5b/1x1/bn_undesiredBlur"
  top: "inception_5b/1x1/bn/sc_undesiredBlur"
  name: "inception_5b/1x1/bn/sc_undesiredBlur"
  type: "Scale"
  param {
    lr_mult: 1
    decay_mult: 1
  }
  param {
    lr_mult: 1
    decay_mult: 1
  }
  scale_param {
    bias_term: true
  }
}
layer {
  bottom: "inception_5b/1x1/bn/sc_undesiredBlur"
  top: "inception_5b/1x1/bn/sc_undesiredBlur"
  name: "inception_5b/1x1/bn/sc/relu_undesiredBlur"
  type: "ReLU"
}
layer {
  bottom: "inception_5a/output_undesiredBlur"
  top: "inception_5b/double3x3_reduce_undesiredBlur"
  name: "inception_5b/double3x3_reduce_undesiredBlur"
  type: "Convolution"
  param {
    lr_mult: 1
    decay_mult: 1
  }
  convolution_param {
    num_output: 192
    pad: 0
    kernel_size: 1
    stride: 1
    weight_filler {
      type: "xavier"
    }
    bias_term: false
  }
}
layer {
  bottom: "inception_5b/double3x3_reduce_undesiredBlur"
  name: "inception_5b/double3x3_reduce/bn_undesiredBlur"
  top: "inception_5b/double3x3_reduce/bn_undesiredBlur"
  type: "BatchNorm"
  param {
    lr_mult: 1
    decay_mult: 1
  }
  param {
    lr_mult: 1
    decay_mult: 1
  }
  param {
    lr_mult: 1
    decay_mult: 1
  }
}
layer {
  bottom: "inception_5b/double3x3_reduce/bn_undesiredBlur"
  top: "inception_5b/double3x3_reduce/bn/sc_undesiredBlur"
  name: "inception_5b/double3x3_reduce/bn/sc_undesiredBlur"
  type: "Scale"
  param {
    lr_mult: 1
    decay_mult: 1
  }
  param {
    lr_mult: 1
    decay_mult: 1
  }
  scale_param {
    bias_term: true
  }
}
layer {
  bottom: "inception_5b/double3x3_reduce/bn/sc_undesiredBlur"
  top: "inception_5b/double3x3_reduce/bn/sc_undesiredBlur"
  name: "inception_5b/double3x3_reduce/bn/sc/relu_undesiredBlur"
  type: "ReLU"
}
layer {
  bottom: "inception_5b/double3x3_reduce/bn/sc_undesiredBlur"
  top: "inception_5b/double3x3a_undesiredBlur"
  name: "inception_5b/double3x3a_undesiredBlur"
  type: "Convolution"
  param {
    lr_mult: 1
    decay_mult: 1
  }
  convolution_param {
    num_output: 224
    pad: 1
    kernel_size: 3
    stride: 1
    weight_filler {
      type: "xavier"
    }
    bias_term: false
  }
}
layer {
  bottom: "inception_5b/double3x3a_undesiredBlur"
  name: "inception_5b/double3x3a/bn_undesiredBlur"
  top: "inception_5b/double3x3a/bn_undesiredBlur"
  type: "BatchNorm"
  param {
    lr_mult: 1
    decay_mult: 1
  }
  param {
    lr_mult: 1
    decay_mult: 1
  }
  param {
    lr_mult: 1
    decay_mult: 1
  }
}
layer {
  bottom: "inception_5b/double3x3a/bn_undesiredBlur"
  top: "inception_5b/double3x3a/bn/sc_undesiredBlur"
  name: "inception_5b/double3x3a/bn/sc_undesiredBlur"
  type: "Scale"
  param {
    lr_mult: 1
    decay_mult: 1
  }
  param {
    lr_mult: 1
    decay_mult: 1
  }
  scale_param {
    bias_term: true
  }
}
layer {
  bottom: "inception_5b/double3x3a/bn/sc_undesiredBlur"
  top: "inception_5b/double3x3a/bn/sc_undesiredBlur"
  name: "inception_5b/double3x3a/bn/sc/relu_undesiredBlur"
  type: "ReLU"
}
layer {
  bottom: "inception_5b/double3x3a/bn/sc_undesiredBlur"
  top: "inception_5b/double3x3b_undesiredBlur"
  name: "inception_5b/double3x3b_undesiredBlur"
  type: "Convolution"
  param {
    lr_mult: 1
    decay_mult: 1
  }
  convolution_param {
    num_output: 56
    pad: 1
    kernel_size: 3
    stride: 1
    weight_filler {
      type: "xavier"
    }
    bias_term: false
  }
}
layer {
  bottom: "inception_5b/double3x3b_undesiredBlur"
  name: "inception_5b/double3x3b/bn_undesiredBlur"
  top: "inception_5b/double3x3b/bn_undesiredBlur"
  type: "BatchNorm"
  param {
    lr_mult: 1
    decay_mult: 1
  }
  param {
    lr_mult: 1
    decay_mult: 1
  }
  param {
    lr_mult: 1
    decay_mult: 1
  }
}
layer {
  bottom: "inception_5b/double3x3b/bn_undesiredBlur"
  top: "inception_5b/double3x3b/bn/sc_undesiredBlur"
  name: "inception_5b/double3x3b/bn/sc_undesiredBlur"
  type: "Scale"
  param {
    lr_mult: 1
    decay_mult: 1
  }
  param {
    lr_mult: 1
    decay_mult: 1
  }
  scale_param {
    bias_term: true
  }
}
layer {
  bottom: "inception_5b/double3x3b/bn/sc_undesiredBlur"
  top: "inception_5b/double3x3b/bn/sc_undesiredBlur"
  name: "inception_5b/double3x3b/bn/sc/relu_undesiredBlur"
  type: "ReLU"
}
layer {
  bottom: "inception_5a/output_undesiredBlur"
  top: "inception_5b/pool_undesiredBlur"
  name: "inception_5b/pool_undesiredBlur"
  type: "Pooling"
  pooling_param {
    pool: MAX
    kernel_size: 3
    stride: 1
    pad: 1
  }
}
layer {
  bottom: "inception_5b/pool_undesiredBlur"
  top: "inception_5b/pool_proj_undesiredBlur"
  name: "inception_5b/pool_proj_undesiredBlur"
  type: "Convolution"
  param {
    lr_mult: 1
    decay_mult: 1
  }
  convolution_param {
    num_output: 32
    pad: 0
    kernel_size: 1
    stride: 1
    weight_filler {
      type: "xavier"
    }
    bias_term: false
  }
}
layer {
  bottom: "inception_5b/pool_proj_undesiredBlur"
  name: "inception_5b/pool_proj/bn_undesiredBlur"
  top: "inception_5b/pool_proj/bn_undesiredBlur"
  type: "BatchNorm"
  param {
    lr_mult: 1
    decay_mult: 1
  }
  param {
    lr_mult: 1
    decay_mult: 1
  }
  param {
    lr_mult: 1
    decay_mult: 1
  }
}
layer {
  bottom: "inception_5b/pool_proj/bn_undesiredBlur"
  top: "inception_5b/pool_proj/bn/sc_undesiredBlur"
  name: "inception_5b/pool_proj/bn/sc_undesiredBlur"
  type: "Scale"
  param {
    lr_mult: 1
    decay_mult: 1
  }
  param {
    lr_mult: 1
    decay_mult: 1
  }
  scale_param {
    bias_term: true
  }
}
layer {
  bottom: "inception_5b/pool_proj/bn/sc_undesiredBlur"
  top: "inception_5b/pool_proj/bn/sc_undesiredBlur"
  name: "inception_5b/pool_proj/bn/sc/relu_undesiredBlur"
  type: "ReLU"
}
layer {
  bottom: "inception_5b/1x1/bn/sc_undesiredBlur"
  bottom: "inception_5b/double3x3b/bn/sc_undesiredBlur"
  bottom: "inception_5b/pool_proj/bn/sc_undesiredBlur"
  top: "inception_5b/output_undesiredBlur"
  name: "inception_5b/output_undesiredBlur"
  type: "Concat"
}
layer {
  bottom: "inception_5b/output_undesiredBlur"
  top: "pool5/7x7_s1_undesiredBlur"
  name: "pool5/7x7_s1_undesiredBlur"
  type: "Pooling"
  pooling_param {
    pool: AVE
    kernel_size: 7
    stride: 1
  }
}
layer {
  name: "pool5/drop_7x7_s1_undesiredBlur"
  type: "Dropout"
  bottom: "pool5/7x7_s1_undesiredBlur"
  top: "pool5/drop_7x7_s1_undesiredBlur"
  dropout_param {
    dropout_ratio: 0.5
  }
}

layer {
  bottom: "pool5/drop_7x7_s1_undesiredBlur"
  top: "loss3_new/classifier_undesiredBlur"
  name: "loss3_new/classifier_undesiredBlur"
  type: "InnerProduct"
  param {
    lr_mult: 1
    decay_mult: 1
  }
  param {
    lr_mult: 2
    decay_mult: 0
  }
  inner_product_param {
    num_output: 128
    weight_filler {
      type: "xavier"
    }
    bias_filler {
      type: "constant"
      value: 0
    }
  }
}
layer {
  type: "ReLU"
  bottom: "loss3_new/classifier_undesiredBlur"
  top: "loss3_new/classifier_undesiredBlur"
  name: "relu_undesiredBlur"
}
layer {
  type: "Dropout"
  bottom: "loss3_new/classifier_undesiredBlur"
  top: "drop_undesiredBlur"
  name: "drop_undesiredBlur"
  dropout_param {
    dropout_ratio: 0.5
  }
}
layer {
  bottom: "drop_undesiredBlur"
  top: "loss3_new_new/classifier_2_undesiredBlur"
  name: "loss3_new_new/classifier_2_undesiredBlur"
  type: "InnerProduct"
  param {
    lr_mult: 1
    decay_mult: 1
  }
  param {
    lr_mult: 2
    decay_mult: 0
  }
  inner_product_param {
    num_output: 11
    weight_filler {
      type: "xavier"
    }
    bias_filler {
      type: "constant"
      value: 0
    }
  }
}
layer {
  bottom: "loss3_new_new/classifier_2_undesiredBlur"
  top: "softmax_undesiredBlur"
  name: "softmax_undesiredBlur"
  type: "Softmax"
}

#----------------------badComposition branch layers-----------------------
#----------------------badComposition branch layers-----------------------
#----------------------badComposition branch layers-----------------------
#----------------------badComposition branch layers-----------------------
#----------------------badComposition branch layers-----------------------

layer {
  bottom: "inception_4e/output_badComposition"
  top: "inception_5a/1x1_badComposition"
  name: "inception_5a/1x1_badComposition"
  type: "Convolution"
  include {
    phase: TRAIN
  }
  param {
    lr_mult: 1
    decay_mult: 1
  }
  convolution_param {
    num_output: 352
    pad: 0
    kernel_size: 1
    stride: 1
    weight_filler {
      type: "xavier"
    }
    bias_term: false
  }
}
layer {
  bottom: "inception_4e/output"
  top: "inception_5a/1x1_badComposition"
  name: "inception_5a/1x1_badComposition"
  type: "Convolution"
  include {
    phase: TEST
  }
  param {
    lr_mult: 1
    decay_mult: 1
  }
  convolution_param {
    num_output: 352
    pad: 0
    kernel_size: 1
    stride: 1
    weight_filler {
      type: "xavier"
    }
    bias_term: false
  }
}
layer {
  bottom: "inception_5a/1x1_badComposition"
  name: "inception_5a/1x1/bn_badComposition"
  top: "inception_5a/1x1/bn_badComposition"
  type: "BatchNorm"
  param {
    lr_mult: 1
    decay_mult: 1
  }
  param {
    lr_mult: 1
    decay_mult: 1
  }
  param {
    lr_mult: 1
    decay_mult: 1
  }
}
layer {
  bottom: "inception_5a/1x1/bn_badComposition"
  top: "inception_5a/1x1/bn/sc_badComposition"
  name: "inception_5a/1x1/bn/sc_badComposition"
  type: "Scale"
  param {
    lr_mult: 1
    decay_mult: 1
  }
  param {
    lr_mult: 1
    decay_mult: 1
  }
  scale_param {
    bias_term: true
  }
}
layer {
  bottom: "inception_5a/1x1/bn/sc_badComposition"
  top: "inception_5a/1x1/bn/sc_badComposition"
  name: "inception_5a/1x1/bn/sc/relu_badComposition"
  type: "ReLU"
}
layer {
  bottom: "inception_4e/output_badComposition"
  top: "inception_5a/3x3_reduce_badComposition"
  name: "inception_5a/3x3_reduce_badComposition"
  type: "Convolution"
  include {
    phase: TRAIN
  }
  param {
    lr_mult: 1
    decay_mult: 1
  }
  convolution_param {
    num_output: 192
    pad: 0
    kernel_size: 1
    stride: 1
    weight_filler {
      type: "xavier"
    }
    bias_term: false
  }
}
layer {
  bottom: "inception_4e/output"
  top: "inception_5a/3x3_reduce_badComposition"
  name: "inception_5a/3x3_reduce_badComposition"
  type: "Convolution"
  include {
    phase: TEST
  }
  param {
    lr_mult: 1
    decay_mult: 1
  }
  convolution_param {
    num_output: 192
    pad: 0
    kernel_size: 1
    stride: 1
    weight_filler {
      type: "xavier"
    }
    bias_term: false
  }
}
layer {
  bottom: "inception_5a/3x3_reduce_badComposition"
  name: "inception_5a/3x3_reduce/bn_badComposition"
  top: "inception_5a/3x3_reduce/bn_badComposition"
  type: "BatchNorm"
  param {
    lr_mult: 1
    decay_mult: 1
  }
  param {
    lr_mult: 1
    decay_mult: 1
  }
  param {
    lr_mult: 1
    decay_mult: 1
  }
}
layer {
  bottom: "inception_5a/3x3_reduce/bn_badComposition"
  top: "inception_5a/3x3_reduce/bn/sc_badComposition"
  name: "inception_5a/3x3_reduce/bn/sc_badComposition"
  type: "Scale"
  param {
    lr_mult: 1
    decay_mult: 1
  }
  param {
    lr_mult: 1
    decay_mult: 1
  }
  scale_param {
    bias_term: true
  }
}
layer {
  bottom: "inception_5a/3x3_reduce/bn/sc_badComposition"
  top: "inception_5a/3x3_reduce/bn/sc_badComposition"
  name: "inception_5a/3x3_reduce/bn/sc/relu_badComposition"
  type: "ReLU"
}
layer {
  bottom: "inception_5a/3x3_reduce/bn/sc_badComposition"
  top: "inception_5a/3x3_badComposition"
  name: "inception_5a/3x3_badComposition"
  type: "Convolution"
  param {
    lr_mult: 1
    decay_mult: 1
  }
  convolution_param {
    num_output: 320
    pad: 1
    kernel_size: 3
    stride: 1
    weight_filler {
      type: "xavier"
    }
    bias_term: false
  }
}
layer {
  bottom: "inception_5a/3x3_badComposition"
  name: "inception_5a/3x3/bn_badComposition"
  top: "inception_5a/3x3/bn_badComposition"
  type: "BatchNorm"
  param {
    lr_mult: 1
    decay_mult: 1
  }
  param {
    lr_mult: 1
    decay_mult: 1
  }
  param {
    lr_mult: 1
    decay_mult: 1
  }
}
layer {
  bottom: "inception_5a/3x3/bn_badComposition"
  top: "inception_5a/3x3/bn/sc_badComposition"
  name: "inception_5a/3x3/bn/sc_badComposition"
  type: "Scale"
  param {
    lr_mult: 1
    decay_mult: 1
  }
  param {
    lr_mult: 1
    decay_mult: 1
  }
  scale_param {
    bias_term: true
  }
}
layer {
  bottom: "inception_5a/3x3/bn/sc_badComposition"
  top: "inception_5a/3x3/bn/sc_badComposition"
  name: "inception_5a/3x3/bn/sc/relu_badComposition"
  type: "ReLU"
}
layer {
  bottom: "inception_4e/output_badComposition"
  top: "inception_5a/double3x3_reduce_badComposition"
  name: "inception_5a/double3x3_reduce_badComposition"
  type: "Convolution"
  include {
    phase: TRAIN
  }
  param {
    lr_mult: 1
    decay_mult: 1
  }
  convolution_param {
    num_output: 160
    pad: 0
    kernel_size: 1
    stride: 1
    weight_filler {
      type: "xavier"
    }
    bias_term: false
  }
}
layer {
  bottom: "inception_4e/output"
  top: "inception_5a/double3x3_reduce_badComposition"
  name: "inception_5a/double3x3_reduce_badComposition"
  type: "Convolution"
  include {
    phase: TEST
  }
  param {
    lr_mult: 1
    decay_mult: 1
  }
  convolution_param {
    num_output: 160
    pad: 0
    kernel_size: 1
    stride: 1
    weight_filler {
      type: "xavier"
    }
    bias_term: false
  }
}
layer {
  bottom: "inception_5a/double3x3_reduce_badComposition"
  name: "inception_5a/double3x3_reduce/bn_badComposition"
  top: "inception_5a/double3x3_reduce/bn_badComposition"
  type: "BatchNorm"
  param {
    lr_mult: 1
    decay_mult: 1
  }
  param {
    lr_mult: 1
    decay_mult: 1
  }
  param {
    lr_mult: 1
    decay_mult: 1
  }
}
layer {
  bottom: "inception_5a/double3x3_reduce/bn_badComposition"
  top: "inception_5a/double3x3_reduce/bn/sc_badComposition"
  name: "inception_5a/double3x3_reduce/bn/sc_badComposition"
  type: "Scale"
  param {
    lr_mult: 1
    decay_mult: 1
  }
  param {
    lr_mult: 1
    decay_mult: 1
  }
  scale_param {
    bias_term: true
  }
}
layer {
  bottom: "inception_5a/double3x3_reduce/bn/sc_badComposition"
  top: "inception_5a/double3x3_reduce/bn/sc_badComposition"
  name: "inception_5a/double3x3_reduce/bn/sc/relu_badComposition"
  type: "ReLU"
}
layer {
  bottom: "inception_5a/double3x3_reduce/bn/sc_badComposition"
  top: "inception_5a/double3x3a_badComposition"
  name: "inception_5a/double3x3a_badComposition"
  type: "Convolution"
  param {
    lr_mult: 1
    decay_mult: 1
  }
  convolution_param {
    num_output: 224
    pad: 1
    kernel_size: 3
    stride: 1
    weight_filler {
      type: "xavier"
    }
    bias_term: false
  }
}
layer {
  bottom: "inception_5a/double3x3a_badComposition"
  name: "inception_5a/double3x3a/bn_badComposition"
  top: "inception_5a/double3x3a/bn_badComposition"
  type: "BatchNorm"
  param {
    lr_mult: 1
    decay_mult: 1
  }
  param {
    lr_mult: 1
    decay_mult: 1
  }
  param {
    lr_mult: 1
    decay_mult: 1
  }
}
layer {
  bottom: "inception_5a/double3x3a/bn_badComposition"
  top: "inception_5a/double3x3a/bn/sc_badComposition"
  name: "inception_5a/double3x3a/bn/sc_badComposition"
  type: "Scale"
  param {
    lr_mult: 1
    decay_mult: 1
  }
  param {
    lr_mult: 1
    decay_mult: 1
  }
  scale_param {
    bias_term: true
  }
}
layer {
  bottom: "inception_5a/double3x3a/bn/sc_badComposition"
  top: "inception_5a/double3x3a/bn/sc_badComposition"
  name: "inception_5a/double3x3a/bn/sc/relu_badComposition"
  type: "ReLU"
}
layer {
  bottom: "inception_5a/double3x3a/bn/sc_badComposition"
  top: "inception_5a/double3x3b_badComposition"
  name: "inception_5a/double3x3b_badComposition"
  type: "Convolution"
  param {
    lr_mult: 1
    decay_mult: 1
  }
  convolution_param {
    num_output: 224
    pad: 1
    kernel_size: 3
    stride: 1
    weight_filler {
      type: "xavier"
    }
    bias_term: false
  }
}
layer {
  bottom: "inception_5a/double3x3b_badComposition"
  name: "inception_5a/double3x3b/bn_badComposition"
  top: "inception_5a/double3x3b/bn_badComposition"
  type: "BatchNorm"
  param {
    lr_mult: 1
    decay_mult: 1
  }
  param {
    lr_mult: 1
    decay_mult: 1
  }
  param {
    lr_mult: 1
    decay_mult: 1
  }
}
layer {
  bottom: "inception_5a/double3x3b/bn_badComposition"
  top: "inception_5a/double3x3b/bn/sc_badComposition"
  name: "inception_5a/double3x3b/bn/sc_badComposition"
  type: "Scale"
  param {
    lr_mult: 1
    decay_mult: 1
  }
  param {
    lr_mult: 1
    decay_mult: 1
  }
  scale_param {
    bias_term: true
  }
}
layer {
  bottom: "inception_5a/double3x3b/bn/sc_badComposition"
  top: "inception_5a/double3x3b/bn/sc_badComposition"
  name: "inception_5a/double3x3b/bn/sc/relu_badComposition"
  type: "ReLU"
}
layer {
  bottom: "inception_4e/output_badComposition"
  top: "inception_5a/pool_badComposition"
  name: "inception_5a/pool_badComposition"
  type: "Pooling"
  include {
    phase: TRAIN
  }
  pooling_param {
    pool: AVE
    kernel_size: 3
    stride: 1
    pad: 1
  }
}
layer {
  bottom: "inception_4e/output"
  top: "inception_5a/pool_badComposition"
  name: "inception_5a/pool_badComposition"
  type: "Pooling"
  include {
    phase: TEST
  }
  pooling_param {
    pool: AVE
    kernel_size: 3
    stride: 1
    pad: 1
  }
}
layer {
  bottom: "inception_5a/pool_badComposition"
  top: "inception_5a/pool_proj_badComposition"
  name: "inception_5a/pool_proj_badComposition"
  type: "Convolution"
  param {
    lr_mult: 1
    decay_mult: 1
  }
  convolution_param {
    num_output: 128
    pad: 0
    kernel_size: 1
    stride: 1
    weight_filler {
      type: "xavier"
    }
    bias_term: false
  }
}
layer {
  bottom: "inception_5a/pool_proj_badComposition"
  name: "inception_5a/pool_proj/bn_badComposition"
  top: "inception_5a/pool_proj/bn_badComposition"
  type: "BatchNorm"
  param {
    lr_mult: 1
    decay_mult: 1
  }
  param {
    lr_mult: 1
    decay_mult: 1
  }
  param {
    lr_mult: 1
    decay_mult: 1
  }
}
layer {
  bottom: "inception_5a/pool_proj/bn_badComposition"
  top: "inception_5a/pool_proj/bn/sc_badComposition"
  name: "inception_5a/pool_proj/bn/sc_badComposition"
  type: "Scale"
  param {
    lr_mult: 1
    decay_mult: 1
  }
  param {
    lr_mult: 1
    decay_mult: 1
  }
  scale_param {
    bias_term: true
  }
}
layer {
  bottom: "inception_5a/pool_proj/bn/sc_badComposition"
  top: "inception_5a/pool_proj/bn/sc_badComposition"
  name: "inception_5a/pool_proj/bn/sc/relu_badComposition"
  type: "ReLU"
}
layer {
  bottom: "inception_5a/1x1/bn/sc_badComposition"
  bottom: "inception_5a/3x3/bn/sc_badComposition"
  bottom: "inception_5a/double3x3b/bn/sc_badComposition"
  bottom: "inception_5a/pool_proj/bn/sc_badComposition"
  top: "inception_5a/output_badComposition"
  name: "inception_5a/output_badComposition"
  type: "Concat"
}
layer {
  bottom: "inception_5a/output_badComposition"
  top: "inception_5b/1x1_badComposition"
  name: "inception_5b/1x1_badComposition"
  type: "Convolution"
  param {
    lr_mult: 1
    decay_mult: 1
  }
  convolution_param {
    num_output: 88
    pad: 0
    kernel_size: 1
    stride: 1
    weight_filler {
      type: "xavier"
    }
    bias_term: false
  }
}
layer {
  bottom: "inception_5b/1x1_badComposition"
  name: "inception_5b/1x1/bn_badComposition"
  top: "inception_5b/1x1/bn_badComposition"
  type: "BatchNorm"
  param {
    lr_mult: 1
    decay_mult: 1
  }
  param {
    lr_mult: 1
    decay_mult: 1
  }
  param {
    lr_mult: 1
    decay_mult: 1
  }
}
layer {
  bottom: "inception_5b/1x1/bn_badComposition"
  top: "inception_5b/1x1/bn/sc_badComposition"
  name: "inception_5b/1x1/bn/sc_badComposition"
  type: "Scale"
  param {
    lr_mult: 1
    decay_mult: 1
  }
  param {
    lr_mult: 1
    decay_mult: 1
  }
  scale_param {
    bias_term: true
  }
}
layer {
  bottom: "inception_5b/1x1/bn/sc_badComposition"
  top: "inception_5b/1x1/bn/sc_badComposition"
  name: "inception_5b/1x1/bn/sc/relu_badComposition"
  type: "ReLU"
}
layer {
  bottom: "inception_5a/output_badComposition"
  top: "inception_5b/double3x3_reduce_badComposition"
  name: "inception_5b/double3x3_reduce_badComposition"
  type: "Convolution"
  param {
    lr_mult: 1
    decay_mult: 1
  }
  convolution_param {
    num_output: 192
    pad: 0
    kernel_size: 1
    stride: 1
    weight_filler {
      type: "xavier"
    }
    bias_term: false
  }
}
layer {
  bottom: "inception_5b/double3x3_reduce_badComposition"
  name: "inception_5b/double3x3_reduce/bn_badComposition"
  top: "inception_5b/double3x3_reduce/bn_badComposition"
  type: "BatchNorm"
  param {
    lr_mult: 1
    decay_mult: 1
  }
  param {
    lr_mult: 1
    decay_mult: 1
  }
  param {
    lr_mult: 1
    decay_mult: 1
  }
}
layer {
  bottom: "inception_5b/double3x3_reduce/bn_badComposition"
  top: "inception_5b/double3x3_reduce/bn/sc_badComposition"
  name: "inception_5b/double3x3_reduce/bn/sc_badComposition"
  type: "Scale"
  param {
    lr_mult: 1
    decay_mult: 1
  }
  param {
    lr_mult: 1
    decay_mult: 1
  }
  scale_param {
    bias_term: true
  }
}
layer {
  bottom: "inception_5b/double3x3_reduce/bn/sc_badComposition"
  top: "inception_5b/double3x3_reduce/bn/sc_badComposition"
  name: "inception_5b/double3x3_reduce/bn/sc/relu_badComposition"
  type: "ReLU"
}
layer {
  bottom: "inception_5b/double3x3_reduce/bn/sc_badComposition"
  top: "inception_5b/double3x3a_badComposition"
  name: "inception_5b/double3x3a_badComposition"
  type: "Convolution"
  param {
    lr_mult: 1
    decay_mult: 1
  }
  convolution_param {
    num_output: 224
    pad: 1
    kernel_size: 3
    stride: 1
    weight_filler {
      type: "xavier"
    }
    bias_term: false
  }
}
layer {
  bottom: "inception_5b/double3x3a_badComposition"
  name: "inception_5b/double3x3a/bn_badComposition"
  top: "inception_5b/double3x3a/bn_badComposition"
  type: "BatchNorm"
  param {
    lr_mult: 1
    decay_mult: 1
  }
  param {
    lr_mult: 1
    decay_mult: 1
  }
  param {
    lr_mult: 1
    decay_mult: 1
  }
}
layer {
  bottom: "inception_5b/double3x3a/bn_badComposition"
  top: "inception_5b/double3x3a/bn/sc_badComposition"
  name: "inception_5b/double3x3a/bn/sc_badComposition"
  type: "Scale"
  param {
    lr_mult: 1
    decay_mult: 1
  }
  param {
    lr_mult: 1
    decay_mult: 1
  }
  scale_param {
    bias_term: true
  }
}
layer {
  bottom: "inception_5b/double3x3a/bn/sc_badComposition"
  top: "inception_5b/double3x3a/bn/sc_badComposition"
  name: "inception_5b/double3x3a/bn/sc/relu_badComposition"
  type: "ReLU"
}
layer {
  bottom: "inception_5b/double3x3a/bn/sc_badComposition"
  top: "inception_5b/double3x3b_badComposition"
  name: "inception_5b/double3x3b_badComposition"
  type: "Convolution"
  param {
    lr_mult: 1
    decay_mult: 1
  }
  convolution_param {
    num_output: 56
    pad: 1
    kernel_size: 3
    stride: 1
    weight_filler {
      type: "xavier"
    }
    bias_term: false
  }
}
layer {
  bottom: "inception_5b/double3x3b_badComposition"
  name: "inception_5b/double3x3b/bn_badComposition"
  top: "inception_5b/double3x3b/bn_badComposition"
  type: "BatchNorm"
  param {
    lr_mult: 1
    decay_mult: 1
  }
  param {
    lr_mult: 1
    decay_mult: 1
  }
  param {
    lr_mult: 1
    decay_mult: 1
  }
}
layer {
  bottom: "inception_5b/double3x3b/bn_badComposition"
  top: "inception_5b/double3x3b/bn/sc_badComposition"
  name: "inception_5b/double3x3b/bn/sc_badComposition"
  type: "Scale"
  param {
    lr_mult: 1
    decay_mult: 1
  }
  param {
    lr_mult: 1
    decay_mult: 1
  }
  scale_param {
    bias_term: true
  }
}
layer {
  bottom: "inception_5b/double3x3b/bn/sc_badComposition"
  top: "inception_5b/double3x3b/bn/sc_badComposition"
  name: "inception_5b/double3x3b/bn/sc/relu_badComposition"
  type: "ReLU"
}
layer {
  bottom: "inception_5a/output_badComposition"
  top: "inception_5b/pool_badComposition"
  name: "inception_5b/pool_badComposition"
  type: "Pooling"
  pooling_param {
    pool: MAX
    kernel_size: 3
    stride: 1
    pad: 1
  }
}
layer {
  bottom: "inception_5b/pool_badComposition"
  top: "inception_5b/pool_proj_badComposition"
  name: "inception_5b/pool_proj_badComposition"
  type: "Convolution"
  param {
    lr_mult: 1
    decay_mult: 1
  }
  convolution_param {
    num_output: 32
    pad: 0
    kernel_size: 1
    stride: 1
    weight_filler {
      type: "xavier"
    }
    bias_term: false
  }
}
layer {
  bottom: "inception_5b/pool_proj_badComposition"
  name: "inception_5b/pool_proj/bn_badComposition"
  top: "inception_5b/pool_proj/bn_badComposition"
  type: "BatchNorm"
  param {
    lr_mult: 1
    decay_mult: 1
  }
  param {
    lr_mult: 1
    decay_mult: 1
  }
  param {
    lr_mult: 1
    decay_mult: 1
  }
}
layer {
  bottom: "inception_5b/pool_proj/bn_badComposition"
  top: "inception_5b/pool_proj/bn/sc_badComposition"
  name: "inception_5b/pool_proj/bn/sc_badComposition"
  type: "Scale"
  param {
    lr_mult: 1
    decay_mult: 1
  }
  param {
    lr_mult: 1
    decay_mult: 1
  }
  scale_param {
    bias_term: true
  }
}
layer {
  bottom: "inception_5b/pool_proj/bn/sc_badComposition"
  top: "inception_5b/pool_proj/bn/sc_badComposition"
  name: "inception_5b/pool_proj/bn/sc/relu_badComposition"
  type: "ReLU"
}
layer {
  bottom: "inception_5b/1x1/bn/sc_badComposition"
  bottom: "inception_5b/double3x3b/bn/sc_badComposition"
  bottom: "inception_5b/pool_proj/bn/sc_badComposition"
  top: "inception_5b/output_badComposition"
  name: "inception_5b/output_badComposition"
  type: "Concat"
}
layer {
  bottom: "inception_5b/output_badComposition"
  top: "pool5/7x7_s1_badComposition"
  name: "pool5/7x7_s1_badComposition"
  type: "Pooling"
  pooling_param {
    pool: AVE
    kernel_size: 7
    stride: 1
  }
}
layer {
  name: "pool5/drop_7x7_s1_badComposition"
  type: "Dropout"
  bottom: "pool5/7x7_s1_badComposition"
  top: "pool5/drop_7x7_s1_badComposition"
  dropout_param {
    dropout_ratio: 0.5
  }
}

layer {
  bottom: "pool5/drop_7x7_s1_badComposition"
  top: "loss3_new/classifier_badComposition"
  name: "loss3_new/classifier_badComposition"
  type: "InnerProduct"
  param {
    lr_mult: 1
    decay_mult: 1
  }
  param {
    lr_mult: 2
    decay_mult: 0
  }
  inner_product_param {
    num_output: 128
    weight_filler {
      type: "xavier"
    }
    bias_filler {
      type: "constant"
      value: 0
    }
  }
}
layer {
  type: "ReLU"
  bottom: "loss3_new/classifier_badComposition"
  top: "loss3_new/classifier_badComposition"
  name: "relu_badComposition"
}
layer {
  type: "Dropout"
  bottom: "loss3_new/classifier_badComposition"
  top: "drop_badComposition"
  name: "drop_badComposition"
  dropout_param {
    dropout_ratio: 0.5
  }
}
layer {
  bottom: "drop_badComposition"
  top: "loss3_new_new/classifier_2_badComposition"
  name: "loss3_new_new/classifier_2_badComposition"
  type: "InnerProduct"
  param {
    lr_mult: 1
    decay_mult: 1
  }
  param {
    lr_mult: 2
    decay_mult: 0
  }
  inner_product_param {
    num_output: 11
    weight_filler {
      type: "xavier"
    }
    bias_filler {
      type: "constant"
      value: 0
    }
  }
}
layer {
  bottom: "loss3_new_new/classifier_2_badComposition"
  top: "softmax_badComposition"
  name: "softmax_badComposition"
  type: "Softmax"
}